data-science/HW11:Neural_Nets/weights.pt (torch, 973263 bytes, 8 tensors)

fc1.weight f4 [256, 784]
000000 9a 0c fe bc 0b a3 bc bd 0b dc cb bc 32 70 9a bd
       -0.031011868 -0.092107855 -0.024885198 -0.07540931
000010 c6 39 4b be 23 43 fa bd 57 0c 46 bd de 84 9e be
       -0.19846258 -0.122198366 -0.048351612 -0.30960745
000020 0a 61 6d 3e e6 52 2d be 16 54 06 bf a5 2c dd be
       0.23181549 -0.16926154 -0.52472055 -0.43198124
000030 77 46 eb bd 2b a8 31 bf 22 22 59 bf 6f 62 5d bf
       -0.114880495 -0.6939723 -0.8481771 -0.8647832
000040 e5 fd 21 bf 1d 21 53 bf f6 f7 c2 be c9 e2 ca be
       -0.6327804 -0.824724 -0.38079804 -0.39626148
000050 31 bb c2 be 62 35 13 3b a5 3a 60 bd f1 f3 f3 bc
       -0.3803344 0.0022462239 -0.054743428 -0.029779406
000060 ab 8c e9 bc d9 51 05 be 17 8b 75 be a5 7a 1a bd
       -0.028509459 -0.13019504 -0.2397884 -0.03771462
000070 2a 11 a4 3b f2 3f 21 be 54 ad 7d bd 32 41 55 be
       0.005006929 -0.1574705 -0.061932877 -0.20825651
000080 89 31 c9 bd 8e 7a 8e be 24 f7 e1 be 5d c2 b1 be
       -0.09823901 -0.27827877 -0.44133866 -0.347186
000090 84 27 07 3d ff cb 55 be 2b 23 08 be 28 21 c6 bb
       0.03299667 -0.208786 -0.13294666 -0.006046433
0000a0 66 3d 75 be fe b1 db be 93 47 ce 3d d6 3d 0f bf
       -0.23949203 -0.42909235 0.100722454 -0.5595373
0000b0 5d f3 11 bf 53 8e 08 bf 0f 30 41 bd f6 d4 01 3d
       -0.5701197 -0.5334217 -0.047164973 0.031697236
0000c0 c4 c6 91 3c 16 78 b2 bc f5 32 b5 3c c3 c4 44 3c
       0.017794974 -0.021785777 0.022119025 0.012009802
0000d0 b8 45 61 3d 85 93 f2 3d 5a ca a4 3d 6c d2 85 3d
       0.05499813 0.11844543 0.08046408 0.065342754
0000e0 e2 9d f5 3c 67 ba 02 3d 2b ce 17 be ff 4f 4b 3d
       0.029982511 0.03191605 -0.1482474 0.049636837
0000f0 fc 2c c3 be 5c c8 97 be 22 6a 05 bd 94 db 19 be
       -0.38120258 -0.2964505 -0.03257192 -0.15025169
000100 17 2c bc 3e 85 bb b0 3e a5 f1 47 bc af e7 d2 3d
       0.36752388 0.34518066 -0.012203609 0.102980964
000110 ff 53 74 be 9d bf 62 3c c4 ab 18 bd 26 b1 75 be
       -0.23860167 0.0138396295 -0.037273183 -0.23993358
000120 d5 e7 bb be 8a ca 32 be e8 c1 f7 bd a4 84 a9 bd
       -0.3670031 -0.17460075 -0.120975316 -0.08277252
000130 9d 1c 5c 3d fd f7 7a 3e 44 40 c6 bc 82 20 03 3e
       0.053738225 0.24508663 -0.024200566 0.1280537
000140 de 6a 20 bd f6 a2 8b be 74 af c2 3e ad 8b 7d 3e
       -0.039164416 -0.27272767 0.38024485 0.24760313
000150 cb 02 58 bc df bc 89 be 61 f9 fe bd dd b5 a4 3b
       -0.01318426 -0.2690191 -0.12449909 0.0050265626
000160 1c ff ae be db 6a 3a 3b 42 19 36 3e b8 b7 ee 3d
       -0.34179008 0.0028445038 0.17783073 0.11656135
000170 2d dc f9 3e c7 3a b3 bc 53 1e ec bd 93 92 f0 bc
       0.48800793 -0.021878613 -0.115292214 -0.029366767
000180 ae 08 e3 bb f7 e5 5d 3e aa 45 50 be cd cf 8d bd
       -0.006928525 0.21669756 -0.20339075 -0.069244005
000190 01 66 03 bd 62 c9 37 be c9 52 03 be 09 e5 89 bd
       -0.0320797 -0.17947915 -0.12824549 -0.06733138
0001a0 67 25 94 bc 3c 3d 66 3d 1f 4e 09 3d 98 22 ea bc
       -0.018084241 0.05621074 0.033521768 -0.028580949
0001b0 c2 4d b5 3b 48 d7 75 be 4d 45 15 3e 57 72 e0 3e
       0.005532951 -0.24007905 0.14577217 0.43837234
0001c0 1c c0 b2 3e 58 b6 b8 bd 05 23 30 3d 8a e1 12 be
       0.34912193 -0.09019154 0.043002147 -0.14343849
0001d0 93 c2 ff be ce e3 af bd 8e 17 0d 3e 18 e0 cb bd
       -0.49953136 -0.08588372 0.13778517 -0.09954852
0001e0 93 54 0f be ea 52 e4 be 10 61 d5 bd 29 d3 e7 3d
       -0.13997106 -0.44594508 -0.10418904 0.113195725
0001f0 d2 6d 07 3f 63 b3 41 3e d1 34 86 be 94 92 fb 3d
       0.5290195 0.18916087 -0.2621217 0.12283817
000200 b9 c5 fd 3d 93 b1 85 be 00 5b 3b bd e0 a4 86 be
       0.12391228 -0.2611204 -0.04574108 -0.26297665
000210 a2 c3 a0 be 6c 34 2b bd f6 13 21 3c 58 08 93 3d
       -0.31399256 -0.04179804 0.009831419 0.07179326
000220 01 09 0e 3e 54 91 f6 3c 7c a3 ef 3d 69 30 94 3e
       0.13870622 0.030098595 0.11701104 0.28943184
000230 be e4 78 be 93 93 e6 bd 09 64 7f be d6 01 54 be
       -0.24306008 -0.11258616 -0.24940504 -0.20703825
000240 ac db b2 be 50 81 8a be 4e 7b 28 be 42 bd 52 be
       -0.3493322 -0.27051783 -0.16453287 -0.20580009
000250 f5 c3 81 3e 9d 66 a9 bc ed 0f 2c 3d 6f 76 54 3d
       0.25344816 -0.020678813 0.042007376 0.05187076
000260 c6 d4 a2 3d ef 2c 42 3d af 9f 3c be 58 a3 a6 bb
       0.079507396 0.047406133 -0.1842029 -0.00508539
000270 70 14 83 be b4 67 8d be e5 38 d5 be ba cf 64 be
       -0.2560153 -0.27618182 -0.4164497 -0.22344866
000280 05 18 b8 3d 8d e0 98 3d 82 be e1 3c 77 60 65 3c
       0.08988956 0.07464705 0.027556662 0.01400005
000290 b8 80 a3 3e ce ee b1 3e 3a 30 c8 3d 56 88 1e be
       0.31934142 0.34752506 0.097748235 -0.15481696
0002a0 c0 f8 83 3e 07 7f ad bd 75 8f 42 3c 2a 13 b3 be
       0.2577572 -0.08471494 0.011875023 -0.3497556
0002b0 ae a2 e2 be 59 f9 de bd 48 dd 89 be 0f de 8c be
       -0.4426474 -0.10887403 -0.26926637 -0.27513167
0002c0 89 11 97 3e 0e 05 5a 3d 26 27 d5 bd d6 79 2d bf
       0.29505566 0.053227477 -0.104078576 -0.6776403
0002d0 b9 2c 00 bf e9 d8 80 be 35 ef 67 be 12 13 ab 3c
       -0.5006824 -0.2516549 -0.22649844 0.020883117
0002e0 d8 93 1a 3e 72 96 92 bd 6c 1c b0 be 80 d9 c8 3d
       0.1509546 -0.071576014 -0.34396684 0.0980711
0002f0 85 ab f7 3e 09 19 b5 3e fc 71 f8 bc 35 b2 3d 3e
       0.48373047 0.35370663 -0.03032779 0.18525012
000300 ff 03 81 3e 8c 77 49 3e cb 69 6c 3d f4 5e 35 3e
       0.2519836 0.1967451 0.05771808 0.17712003
000310 0e 5b a8 bc 87 85 fa 3c f3 1b 9c be 3f f5 4d be
       -0.02055123 0.030581249 -0.30490074 -0.20113085
000320 de de 2a bf cf da 28 be 9e 22 cc be 69 3f e7 be
       -0.6674632 -0.16489719 -0.3987016 -0.45165566
000330 58 7a cb be d5 4e 17 bf 4b 7b f3 be db 90 53 bf
       -0.39741778 -0.59104663 -0.47555003 -0.82642907
000340 b7 59 17 be 99 92 8d be bd 7c ed 3d d9 06 47 3e
       -0.14780317 -0.27650908 0.115960576 0.19436206
000350 b0 82 b8 3e bb a3 cb 3d da 03 19 be 38 5f f5 bd
       0.36037207 0.099433385 -0.14942876 -0.11981052
000360 33 9f 6f 3e 86 6b 7a 3e 61 8b 3b bd d2 6d db 3d
       0.23400573 0.2445508 -0.04578722 0.10714306
000370 6d a2 c7 3d ad b6 a5 bd 6d 89 7b bd fb f6 4c 3e
       0.09747777 -0.08091483 -0.061410356 0.2001609
000380 e5 3f 35 3e 75 b4 97 bd 64 66 ac be a5 6e 3d bf
       0.17700155 -0.07407466 -0.33671868 -0.73996955
000390 70 27 26 bf 94 97 8f be 56 55 f7 be b3 f0 00 bf
       -0.64903927 -0.28045332 -0.48307294 -0.5036728
0003a0 ef c2 ff be dc 75 0f bf ff fb 3e bd aa 2b 85 be
       -0.4995341 -0.56039214 -0.04662704 -0.26009876
0003b0 4d 50 14 3d 6b 77 5f bd 35 e2 4c 3e 2c 19 ea 3d
       0.036209393 -0.054557245 0.20008166 0.114305824
0003c0 ad 5e a7 3d 89 2a c0 3e c7 40 eb 3e 98 65 89 3e
       0.08172355 0.37532452 0.4594786 0.26835322
0003d0 77 43 82 3e 23 89 2f 3e a6 f4 01 3d fc fc 05 3e
       0.25442097 0.17142157 0.031727456 0.13084787
0003e0 57 bb 36 bd 08 f1 40 3c a3 5f 23 bd 02 ac 5c bd
       -0.044612255 0.011776216 -0.03988613 -0.053874977
0003f0 09 29 83 be 09 b3 4d be c0 e5 10 3e c3 d9 d8 be
       -0.25617245 -0.20087828 0.14150143 -0.4235364

fc1.bias f4 [256]
000000 76 19 c7 3e 93 ad 23 3d 5e 6b 3a 3e 12 36 95 3d
       0.38886613 0.039960455 0.1820502 0.07285704
000010 39 1f 8c 3e a0 bc cf bd e9 4e 86 be a6 63 7c 3e
       0.2736757 -0.10143399 -0.2623208 0.24647388
000020 ca 86 ff 3d 5c 49 3d 3f 52 37 75 3e 4c e6 c9 bd
       0.12476881 0.7394006 0.23946884 -0.09858379
000030 0b 01 4a 3e d1 d3 70 3e d8 21 27 bc 1e 86 53 3e
       0.1972696 0.23518302 -0.01020094 0.2065663
000040 21 ee 94 3c b3 83 30 3e ab d4 0c bd be 69 f7 be
       0.018179955 0.1723774 -0.034382503 -0.48322862
000050 5f 4f 1d 3e e0 91 c7 bc dd 6c 35 be 90 3b a4 be
       0.15362309 -0.02436155 -0.1771731 -0.32076693
000060 f6 5b a5 bd 18 09 94 bd 20 db 17 3f 77 f8 7b be
       -0.08074181 -0.07228297 0.59318733 -0.246065
000070 f8 20 94 3e 30 d6 8d be 6e 95 3f 3e 9a 1f 3b bb
       0.28931403 -0.27702475 0.18709347 -0.0028552772
000080 e7 7a 22 bf 7c cb 3d 3f 3f c7 c3 be 19 91 15 bf
       -0.63468784 0.7413862 -0.3823795 -0.58424526
000090 f4 51 2b 3f e0 85 81 3e 1c c2 06 3e 41 87 fd bc
       0.66921926 0.2529745 0.13159984 -0.030948283
0000a0 bd c7 92 3e 85 8f c1 3e c5 71 aa 3d c9 37 d9 3d
       0.28668013 0.3780481 0.08322481 0.10606343
0000b0 23 e8 91 3e e9 a2 a7 3d af 8f 85 bc 1e c2 a7 3e
       0.2849742 0.081853695 -0.016303865 0.32765287
0000c0 4f 36 20 3d 40 06 1a be e3 c9 40 be f1 c6 dc 3e
       0.039114293 -0.15041447 -0.18827014 0.4312053
0000d0 28 42 0c 3f 5f ac be be 19 51 0e bd 77 7f 2e bd
       0.54788446 -0.37240884 -0.03474531 -0.04260203
0000e0 34 5c 25 3d 5a c8 29 be 91 72 c4 be 79 0e a1 be
       0.040371135 -0.16580334 -0.38368657 -0.31456354
0000f0 fe ef 15 bf 9b e8 dc 3d f1 05 09 bd ea 16 e3 bd
       -0.58569324 0.107865535 -0.03345293 -0.11088355
000100 38 d6 f5 3e 8e 1f 1b bc c9 62 83 3d 05 e2 f6 bc
       0.48014998 -0.009467972 0.06415326 -0.030137071
000110 0d d1 8f bd 0c 89 8b 3e 76 e0 a0 be ee 6a c2 3e
       -0.07022295 0.27252996 -0.3142125 0.37972206
000120 53 0b 5d be 3c f7 0a 3e fc 02 f9 3e 1a b4 04 be
       -0.21586351 0.13570875 0.4863509 -0.12959328
000130 8c f1 d6 3e 97 3b 30 bd 06 54 b5 3e f6 e8 10 3f
       0.4198116 -0.04302558 0.35415667 0.5660547
000140 05 95 ad be b1 5e 2e 3d ad df 02 3d 82 b0 97 be
       -0.33902755 0.042570774 0.031951595 -0.29626852
000150 5e 6d 27 bd 5e 59 f7 3d 11 a5 f0 3d 84 bf a9 3e
       -0.040875785 0.12077592 0.11750234 0.33153927
000160 c6 b2 7e 3e 97 f8 4d bd 7e 47 1a 3f db e8 d8 be
       0.24872884 -0.050285902 0.6026534 -0.42365155
000170 81 ce 55 bd 7b 02 45 bf ef de 0a 3e 87 c9 8a 3e
       -0.05219889 -0.7695691 0.13561605 0.27106878
000180 fa f6 13 bf 76 e6 3e 3e 8e af 34 3f 5c 25 8c 3e
       -0.5779873 0.18642601 0.70580375 0.27372253
000190 7b af 1e bf 1e fd 08 3f 65 a8 b8 bd 01 d2 0b bd
       -0.6198651 0.53511226 -0.09016494 -0.034135822
0001a0 9c 1d 3c bc 32 1e e8 be e3 a9 37 bf 53 c9 36 bd
       -0.011481669 -0.45335537 -0.717436 -0.04462559
0001b0 c9 5f 10 bb 98 62 89 be 93 3f 42 bf 8b 2e b1 be
       -0.0022029749 -0.26833034 -0.75878257 -0.34605822
0001c0 04 f7 ff be 87 de 29 bf 9f f1 b0 bd 16 9e 1a bf
       -0.49993145 -0.66355175 -0.086398356 -0.6039747
0001d0 34 d8 08 3f c2 f6 e5 3e d9 0d c9 3c 3f 8b 0c be
       0.534549 0.44914824 0.024542736 -0.13724993
0001e0 46 77 38 be 8b 8e 09 bf fc 1f ce 3e 89 9a 01 bf
       -0.18014249 -0.5373313 0.40258777 -0.50626427
0001f0 ee bc 10 3c 3e ff 74 3e 12 1f fc bd bd 0d d5 bd
       0.008834107 0.23925492 -0.12310614 -0.10403011
000200 fe 2d 11 3f 66 75 a8 3e 6a f1 31 be 0c a8 b0 be
       0.56710804 0.32902068 -0.17377248 -0.3450321
000210 c5 2c fd 3e 69 ee 52 3e 32 70 7d 3e 30 b5 83 be
       0.4944822 0.20598759 0.2474983 -0.25724173
000220 e8 61 46 be c7 69 cd 3e 73 60 da be 78 af f9 be
       -0.19373286 0.40119764 -0.4265171 -0.48766685
000230 d0 0c 90 3e 82 45 56 3e 79 ae 1a bf 63 64 de 3e
       0.28134775 0.20924953 -0.60422474 0.43435964
000240 3e e3 44 be 66 5d 0e 3d 11 c1 d1 be b7 b9 c6 3c
       -0.19227311 0.03475704 -0.4096761 0.024258478
000250 7e 55 e1 be b8 09 1b be 8c 9a d6 bc 93 f3 17 be
       -0.44010538 -0.15140426 -0.02619674 -0.1483901
000260 3f 08 13 bd dd 34 79 bc b9 14 c0 3e 76 6f 04 3e
       -0.035896536 -0.0152103575 0.3751581 0.12933144
000270 f2 86 85 3d 6d c3 cf 3e 40 24 c5 3e 29 a5 e0 be
       0.065198794 0.40578786 0.3850422 -0.43876007
000280 13 d0 1c bc 48 d5 36 3d cc 81 f3 be 3e ce 4a be
       -0.009571093 0.044636995 -0.47559965 -0.19805238
000290 2c 0d 28 be c7 50 bc be c5 e5 a5 be cc e4 8a be
       -0.16411275 -0.36780378 -0.32401863 -0.27127683
0002a0 dd 3e 14 3f d9 0a 93 bd d0 9e 97 3d 4a 14 98 3d
       0.5790842 -0.071798034 0.07403338 0.07425745
0002b0 7d 31 7a 3e 3b 65 1a 3e 43 25 b3 be 95 e2 a1 bd
       0.24432941 0.15077679 -0.34989366 -0.07904545
0002c0 8d 50 0b bf bc 30 a1 3e 31 cc 72 3e be a4 c3 be
       -0.54419786 0.31482494 0.23710705 -0.38211626
0002d0 25 e6 a6 3e 96 1f 18 bd 1d 32 dc be 3c 7a a9 3e
       0.3259746 -0.037139498 -0.43006983 0.3310107
0002e0 8f 6f b4 3e b5 ba 4b bf 30 3a bf 3e b4 89 77 be
       0.35241362 -0.7958177 0.3734908 -0.24173623
0002f0 62 80 bc 3b e7 90 ba 3e 87 0f 92 3e b9 65 52 be
       0.005752609 0.36438677 0.2852747 -0.20546617
000300 39 66 3e 3e f5 a1 99 bf 70 dd d3 bd f2 88 1b be
       0.18593682 -1.200255 -0.1034497 -0.15188959
000310 e1 7c 68 be 5a 4b 98 be 8d 35 ae 3e 4f 95 ad 3e
       -0.22703888 -0.2974499 0.3402523 0.33902976
000320 dd 02 ec bb 75 5d b8 bc a7 91 98 be 1f 1b 6c 3e
       -0.00720249 -0.022505501 -0.29798624 0.23057221
000330 50 bc 7d 3e 7a c2 f0 3e f8 04 46 3d 72 98 ef be
       0.24778867 0.47023374 0.048344582 -0.46795994
000340 a0 c1 f6 bd 52 a8 e6 bd a8 34 8e 3e 9e 07 74 be
       -0.1204865 -0.11262573 0.2777455 -0.2383103
000350 ef 6c ca 3e 43 b1 02 bf c7 79 c9 3e db 72 c5 3e
       0.39536235 -0.5105173 0.3935072 0.3856419
000360 b5 d8 b8 be b7 9a 1d 3c e8 41 ca 3e 0e e0 89 3b
       -0.36102834 0.009619406 0.39503407 0.0042076176
000370 09 63 da ba 98 b9 ac be 2b e3 44 be 0e 02 ba be
       -0.0016661595 -0.33735347 -0.19227283 -0.36329693
000380 60 bb d2 be 11 4d dc be c3 da 5f bf a8 d6 64 bb
       -0.4115858 -0.43027547 -0.8744318 -0.0034917984
000390 c0 80 4b be 7b 86 01 bd 61 22 b2 be c6 51 99 be
       -0.19873333 -0.03162239 -0.34791854 -0.299452
0003a0 ff 53 a7 3e 52 63 7a 3c c2 b6 3c 3e e4 39 18 bf
       0.3268127 0.015282469 0.18429092 -0.59463334
0003b0 f6 f5 0a be 32 b9 90 be 37 b6 50 3e 53 1a be 3e
       -0.13570389 -0.28266293 0.2038201 0.3712946
0003c0 98 63 e5 3e c0 e9 c0 3e 94 07 53 bf 91 f8 0e 3f
       0.44802547 0.37678337 -0.8243344 0.5584803
0003d0 a1 99 bb 3e ac 1a db be be 53 21 3f 80 51 d1 3c
       0.36640647 -0.42793787 0.63018405 0.025551558
0003e0 5c 12 86 3e 56 82 6e be da ee ea bd 11 e7 3b 3d
       0.26185882 -0.23291907 -0.114713386 0.04587466
0003f0 b9 a9 10 3f 96 3b 85 bd 12 ce 88 3c ee ae 80 be
       0.56508976 -0.06505506 0.016699824 -0.2513346

fc2.weight f4 [128, 256]
000000 14 3d 61 be d5 56 5a 3e b5 b6 61 3e 51 93 f9 bd
       -0.21995956 0.21322186 0.22042353 -0.121863015
000010 88 4e ee 3c 1d 24 51 be 01 62 dc bc a0 7d d7 bd
       0.029090181 -0.20423932 -0.0269022 -0.10522008
000020 12 20 4a bd 2f 31 67 be 62 7f f3 be 5f 45 81 3e
       -0.04934699 -0.22577356 -0.47558123 0.25248238
000030 90 ac 75 3d 4f e6 60 be 37 21 2a 3d 16 bc bd be
       0.05997902 -0.21962856 0.041535582 -0.3705756
000040 26 35 83 bc ae 23 74 3e 05 f3 56 3c f4 25 df bd
       -0.016016554 0.23841736 0.013119464 -0.10895911
000050 07 a0 6c 3c b5 32 41 bd e2 fe 8c be 85 16 58 bd
       0.01444245 -0.0471675 -0.2753821 -0.05275585
000060 a6 c7 8c 3e 18 da 03 3f 63 1d 04 3d d4 ef 95 3e
       0.2749607 0.5150466 0.032254588 0.29284537
000070 b2 e5 22 3e 10 56 55 be 7c cc 8d be 47 ed eb be
       0.15907934 -0.20833611 -0.27695072 -0.46079466
000080 f5 55 8f be 5b f2 da 3c d3 d2 c9 3c c9 f7 fa be
       -0.27995268 0.026726892 0.024636662 -0.4901717
000090 5f 46 97 be 30 fd 06 3f d9 9d 9b 3c 38 ef b8 3e
       -0.29545876 0.52730083 0.018996166 0.3612001
0000a0 ac 7f 9f 3e 13 ec 13 3e 46 06 e8 3c cd 22 96 be
       0.31152093 0.14445524 0.028323304 -0.29323426
0000b0 f5 0e 9d 3e 35 38 e2 bc 15 7b 34 be f0 e8 da bc
       0.30675474 -0.027614692 -0.17625077 -0.026722401
0000c0 1a 81 fa 3d c5 ab 2d bd d1 65 67 3d 02 11 8d bd
       0.122316554 -0.04240014 0.056493584 -0.068880096
0000d0 3e b8 eb 3d fd ef fa 3e 3b 4b 46 3d d3 f3 6b be
       0.11509751 0.49011222 0.04841159 -0.2304223
0000e0 1b cf 93 be f8 8b 8e be a2 69 b2 3e a6 b5 1f be
       -0.28868946 -0.27841163 0.34846216 -0.15596637
0000f0 6f 58 7b bd e0 39 a7 bd 80 19 eb ba 19 91 0f 3e
       -0.061363634 -0.08165336 -0.0017936677 0.14020194
000100 ed b3 08 bf 34 36 70 bd b6 21 95 be 01 f6 27 3d
       -0.53399545 -0.058645442 -0.29127282 0.041006092
000110 1e 8e a9 3c 15 86 0e bf d0 e3 e6 bd 01 35 f6 3c
       0.02069765 -0.5567334 -0.112739205 0.030054571
000120 de 20 81 3e b0 e3 b1 3c 3d 56 66 be a0 43 aa be
       0.25220388 0.021715015 -0.22493835 -0.3325472
000130 df 15 7b 3e ef 10 3d bd dc 4f d6 3e db 56 a9 bd
       0.24520062 -0.046158727 0.41857803 -0.082685195
000140 39 9d 6e 3e 74 fc bc 3d ca 36 88 3e 39 26 ac 3d
       0.23302163 0.09227839 0.266043 0.08405728
000150 8f f1 72 bd f6 16 09 3e 26 6a 1a be b6 7e 88 3d
       -0.0593124 0.13387665 -0.15079555 0.06664793
000160 88 f5 8f 3e 50 9b b2 be 93 2e 9f bc b6 ff a5 bd
       0.28117013 -0.3488412 -0.019431388 -0.081054136
000170 19 56 02 bc cd 65 88 bd 4a 06 92 be cb 91 d7 3e
       -0.007955098 -0.06660042 -0.28520423 0.4210342
000180 d1 0f 15 be 9b 41 b0 be 38 7c cc be c5 19 a2 be
       -0.14556815 -0.34425053 -0.3993852 -0.31660286
000190 06 04 9e bd 68 ff 9d bc e5 69 8c bd 5e 5f 14 bd
       -0.07715611 -0.019286826 -0.06856135 -0.03622376
0001a0 94 21 c4 bd ec 1b 5d be bb ac ad bc dc ab 66 3d
       -0.09576717 -0.21592683 -0.021200528 0.05631624
0001b0 d5 b0 93 3e de 0b 4a be c1 6d 97 be 27 85 ac 3d
       0.2884585 -0.1973109 -0.29575923 0.08423834
0001c0 34 9f 5d bd 5a 0d 20 3e 90 00 b1 3e 6f c6 9c 3e
       -0.054106906 0.15630093 0.34570742 0.30620143
0001d0 65 a7 44 bf 34 a3 cb 3d ce 24 9e bc ba 8b af 3e
       -0.76817924 0.09943238 -0.01930466 0.3428629
0001e0 7c f1 b8 3e 5e 58 b1 bd 74 34 44 3d ad 49 a5 3d
       0.36121738 -0.08659433 0.047901586 0.08070693
0001f0 eb 50 96 be 46 5c 5a be 1c b5 99 bc fd 46 a2 be
       -0.2935861 -0.21324262 -0.018763117 -0.31694785
000200 40 67 c4 bb 32 f9 5c 3e 40 3c 49 3e e6 2c 81 3e
       -0.0059937537 0.21579435 0.1965189 0.25229567
000210 a4 ae a4 be a0 8a ac bd d2 0e 3e 3e 52 eb ca bd
       -0.3216449 -0.08424878 0.18560341 -0.09908165
000220 10 63 4d be 5f c4 52 be 2e d1 b5 3c 28 ae 76 3e
       -0.2005732 -0.20582722 0.022194471 0.24089873
000230 e8 95 9f 3c 9e 3c 66 bd 29 7b 11 3d dd ad 01 be
       0.01948066 -0.056210153 0.035517845 -0.1266398
000240 36 de e6 3e 30 5c f1 be ea 3e a9 3e 84 f3 35 3e
       0.45091408 -0.47140646 0.33055812 0.17768675
000250 b1 5a 1a 3e 62 5f 39 3e a2 d5 73 3d be 2e 23 be
       0.15073659 0.18102792 0.059529908 -0.159358
000260 bd 6f 9b 3e 14 0f bc 3b f4 76 4d be a7 1f cc 3e
       0.30358687 0.005739102 -0.20064908 0.398679
000270 db b2 03 3d 61 ef 36 3e 8d 1b 4c be 6a c0 a7 bd
       0.03215299 0.17864753 -0.19932385 -0.08190997
000280 98 ed c8 bc a7 f3 31 be ac 4e c0 bd c9 45 bb 3e
       -0.024527356 -0.17378102 -0.093900055 0.3657668
000290 d1 57 9e be 97 cd 0c 3d 9e 58 85 bd ba 77 8b bd
       -0.30926374 0.034375753 -0.06511043 -0.068099454
0002a0 2d b4 28 be 06 bf 81 3e b5 5f 8e 3c a1 bc 07 3f
       -0.16474982 0.25341052 0.017379621 0.530222
0002b0 95 46 0a 3e 88 2f 80 bc 7f 8b 35 bd 1c ff e2 3e
       0.13503487 -0.015647665 -0.044322487 0.44335258
0002c0 33 53 90 bd c9 dd 02 3e ca 0d c3 be 6d 38 91 be
       -0.07047119 0.12779917 -0.38096458 -0.28363362
0002d0 8b c3 bb 3e 51 e4 93 3d 3e 1c bf 3d 96 b3 8a 3d
       0.36672625 0.07221282 0.09331559 0.067725345
0002e0 b0 52 bd 3e e6 c4 8d bd 9e d3 28 bd 5c fc 94 be
       0.36977148 -0.06922321 -0.04121744 -0.29098785
0002f0 62 38 a0 bc f3 20 95 bd 9d db 77 bd eb ed 5f 3e
       -0.019558135 -0.07281675 -0.060512174 0.21868102
000300 20 e8 19 3e fa bc 60 bd 20 db 51 bd d3 38 24 be
       0.15029955 -0.054867722 -0.051234365 -0.16037302
000310 88 bf c1 3d df 2d 36 bd ab a4 57 3e 67 3f dd 3e
       0.0946036 -0.04447734 0.2105891 0.43212435
000320 79 39 48 be c3 ef 25 bd ff 3d 00 bd 51 96 e0 be
       -0.19553174 -0.040511858 -0.031309124 -0.43864682
000330 12 82 2a 3e db 59 34 bd 6f bd 14 3e 03 e4 85 3e
       0.1665118 -0.044031005 0.14525388 0.26150522
000340 af af db bc 1b c2 2d be c4 ee 5f be 05 01 43 3f
       -0.02681717 -0.16968577 -0.21868426 0.7617343
000350 13 d5 09 3f e0 ef 16 3e 04 71 40 be 26 3e 1e bd
       0.5384075 0.14739943 -0.18793112 -0.038633488
000360 e3 ba 96 bd 38 5d 7f bd 1d 30 24 3e a4 cb b9 3c
       -0.073598646 -0.06234476 0.16033979 0.022680111
000370 dd f4 4b 3c 6c e1 b3 be 7f 46 cf bd 8d d0 c3 bd
       0.012448517 -0.3513292 -0.10120868 -0.09561262
000380 ff e7 1e 3f 03 bc 64 3e 89 78 c8 3b 76 57 77 be
       0.6207275 0.22337346 0.0061178845 -0.24154457
000390 81 a3 a4 3d 62 f4 65 be de ff 7b 3e 3c d1 1e 3f
       0.080389984 -0.22456506 0.24609324 0.62038016
0003a0 55 56 42 3e dc 7b 7b 3d da 41 98 be e3 4e 0a be
       0.18978246 0.06139742 -0.2973774 -0.13506655
0003b0 7b 0e c8 be e3 d2 24 be 12 e7 29 be 57 b8 48 3e
       -0.39073548 -0.16096072 -0.16592053 0.1960157
0003c0 e4 97 18 3d 20 cf d2 3d 4d 03 21 3e 29 3b ba bd
       0.03725423 0.10293412 0.15723915 -0.09093315
0003d0 e3 84 3c 3e 98 1c b9 3e f6 73 34 3e 77 c7 72 be
       0.18410067 0.36154628 0.1762236 -0.23708902
0003e0 0a 46 9a be 4e d0 17 be 84 3f c7 bd 82 38 4a 3d
       -0.3013156 -0.14825556 -0.097289115 0.049370296
0003f0 fa 37 b9 bd da c7 0b 3e 31 46 de be f6 dc 31 bd
       -0.0904388 0.13650456 -0.43412927 -0.043423615

fc2.bias f4 [128]
000000 f1 8d 42 bf c8 4a d2 3b 91 3a 86 3e b2 8f f0 3e
       -0.75997835 0.006417606 0.26216558 0.4698463
000010 9f 8e bd bd cd b2 13 be ed 21 5e be e4 c3 9a be
       -0.092557184 -0.14423676 -0.21692629 -0.30227578
000020 43 07 93 3e d3 4f 64 3e 42 e0 8a 3e b3 f5 28 bc
       0.28716478 0.22296076 0.2712422 -0.0103124855
000030 d8 1d d2 3d 74 1e a8 bb 64 4f 99 bc 46 9d 27 3f
       0.102595985 -0.0051305834 -0.018714614 0.65474355
000040 fc 0b 6b 3e b0 47 55 be ee 9d 05 bc 36 67 87 3d
       0.2295379 -0.20828128 -0.008155329 0.06611483
000050 a0 6d c5 be 0f 8a de be ee fb 94 bc 3a 9e a3 be
       -0.385602 -0.43464705 -0.018186536 -0.31956655
000060 c8 0b bd bd a9 ea 64 3d db 7d 68 3e 91 a0 ff 3e
       -0.09230763 0.055887852 0.2270426 0.4992719
000070 3f f8 25 3f f9 36 6c bd a2 ab 30 be 3d e6 85 3d
       0.6483192 -0.057669614 -0.17252973 0.06538055
000080 3e a7 9d 3d f6 61 c7 be c8 24 46 be 57 b8 d5 3e
       0.076979145 -0.38941926 -0.19349968 0.41742203
000090 86 8a 8f 3e 97 02 91 be f2 1a af 3e 74 a1 0d bd
       0.28035372 -0.28322288 0.34200245 -0.0345778
0000a0 1a bb 34 bd b2 87 a0 be 32 68 aa 3e 33 67 88 3e
       -0.044123746 -0.31353527 0.3328262 0.26641235
0000b0 51 bc b3 be 2a d8 12 3f c4 ea ba be 09 7d 75 bd
       -0.35104612 0.5736109 -0.36507237 -0.059933696
0000c0 49 f9 06 bf 3d 7a 07 be 7b b1 c5 bd 42 35 91 3e
       -0.5272413 -0.13230224 -0.09652992 0.28360945
0000d0 28 ad 17 bd 2f 89 d4 be c7 2e 71 3e 27 a2 e0 bc
       -0.03703037 -0.41510913 0.23553 -0.02742107
0000e0 48 bf 56 be cd ff dc 3e e9 4c 05 bf 32 5a 21 3f
       -0.20971406 0.4316391 -0.5207048 0.6302825
0000f0 6a b9 bd 3e bf 96 94 3e db ef 72 3e b0 b6 5f be
       0.37055522 0.2902126 0.2372431 -0.21847034
000100 9b 11 05 be 39 2c 3b 3f fc 86 85 3e 5c 79 69 3e
       -0.12994997 0.73114353 0.26079547 0.22800201
000110 61 38 12 3e df 6c 66 be e3 7a bf be 61 4d f7 3e
       0.1427932 -0.22502469 -0.37398443 0.48301223
000120 fa f9 92 3e 91 79 c8 bc 87 e6 df bd 6a 96 20 3e
       0.28706342 -0.02447203 -0.109326415 0.15682378
000130 12 33 92 be da 8c 07 bf 0d e4 b3 be 10 a9 1d 3d
       -0.2855459 -0.529493 -0.35134926 0.03849131
000140 2f e9 b1 3e 60 75 82 3e 42 e6 6c 3d 00 50 e4 be
       0.34748217 0.25480175 0.05783678 -0.44592285
000150 4b b5 08 3e a1 f8 2d 3e bb 85 59 be 1f af 50 3e
       0.13350408 0.16989376 -0.2124242 0.20379303
000160 43 6e 69 be 47 5e 2c 3e 28 18 ad 3e af cb e0 3e
       -0.22795968 0.16832839 0.33807492 0.43905398
000170 d2 b1 7d be a3 5b 20 be de 7a 8e be 35 13 2f 3f
       -0.24774864 -0.15659957 -0.27828115 0.6838868
000180 d0 b9 a1 be a7 25 0c bf a3 f4 ac 3e d0 fe b9 3e
       -0.31587076 -0.5474495 0.33780393 0.3632722
000190 39 79 9f 3e 3b 24 1a 3d 43 24 d5 3e fd ec 16 3f
       0.31147173 0.03763221 0.41629228 0.58955365
0001a0 ed 65 b9 be f3 28 e4 3c ea 59 b8 bd 2c c7 f6 bc
       -0.36210576 0.027851557 -0.09001525 -0.03012427
0001b0 26 80 0c 3e 69 f4 8b 3e ed b1 f4 3e f4 eb 8b 3e
       0.1372076 0.27334908 0.47791997 0.27328455
0001c0 71 18 5b be 09 89 f8 3e 10 54 b5 3e 69 ee b6 be
       -0.21396042 0.4854205 0.35415697 -0.35728768
0001d0 3b ab d1 be f2 7e 18 bf 92 ab 52 3e 4d 8b 06 bd
       -0.4095095 -0.59568703 0.20573261 -0.03284769
0001e0 1b b2 8e be 5a f7 a6 3e 52 53 96 3e f0 4a fe bd
       -0.2787026 0.3261059 0.29360443 -0.12416637
0001f0 d3 ff 4a bd f5 f5 8e 3c af 11 a2 3e 21 d5 a7 3e
       -0.04956038 0.017451266 0.31654117 0.32779792

fc3.weight f4 [64, 128]
000000 e1 b4 71 3e 24 0e 25 bf b8 a2 fc be 68 e4 37 be
       0.23604156 -0.644747 -0.49342895 -0.17958224
000010 03 a3 84 bd df 46 80 3d da 0c 35 3d 8f 77 39 3e
       -0.064764045 0.062635176 0.04420171 0.18112014
000020 cd e2 64 bd 84 44 37 be 39 b3 72 be 2b ab 77 3e
       -0.055880357 -0.1789723 -0.2370118 0.24186389
000030 05 81 35 be 88 20 14 3e 56 0b f5 be 56 f5 fc bd
       -0.17724998 0.14465535 -0.4786021 -0.123514816
000040 c5 f3 99 be 5b 8d 85 be 61 40 04 3e d0 9e a0 3e
       -0.30068794 -0.26084408 0.12915184 0.31371164
000050 c4 7e 70 3e b0 52 1d 3e 39 e4 17 bf d5 2a c5 3e
       0.23485857 0.15363574 -0.59332615 0.3850924
000060 31 d3 00 3e 38 93 2c be ff 1d 8c be 73 2b a7 be
       0.12580563 -0.16853034 -0.27366635 -0.32650337
000070 ff b8 7c 3e 39 5b e0 3e db 66 57 3e ce 11 f0 3d
       0.24679945 0.43819597 0.2103533 0.11722146
000080 14 7e 45 bd c5 0a ed bd f2 3d ba 3d 77 8c bd bd
       -0.04821594 -0.1157432 0.090938464 -0.09255307
000090 30 ee 2f be 57 77 f1 3d 89 0e 09 be b6 97 78 bd
       -0.17180705 0.117903404 -0.13384451 -0.060691558
0000a0 3d 55 b5 3d e8 2a 71 bd c5 d5 52 be 12 76 43 3e
       0.088541485 -0.05887881 -0.20589359 0.19088009
0000b0 c0 b3 01 3e 5f ad cf be 47 b2 35 3e 0d 91 34 bc
       0.12666225 -0.4056196 0.17743789 -0.011020911
0000c0 79 cf 9b 3d 80 9b 9b be 2e 9d 27 3c 7e 0d 8d be
       0.07607932 -0.30392075 0.010230346 -0.27549356
0000d0 98 bb 26 3d af 72 7f 3e e8 2e 56 3e 28 b6 4c 3d
       0.040706247 0.24946092 0.20916331 0.049978405
0000e0 ba fd 29 3e 38 04 41 be 2a 85 b5 3e 63 a0 c8 be
       0.16600695 -0.18849266 0.3545316 -0.39184865
0000f0 a4 3d 18 3e a6 f9 50 bf 77 77 a5 3e 2b 80 1c 3e
       0.14867264 -0.81630933 0.32317707 0.15283267
000100 43 f4 f9 3d 75 07 88 3e 58 e3 ad bd b1 87 9b be
       0.12204792 0.2656819 -0.08490628 -0.30376962
000110 c2 3c 38 3e 10 d4 17 3d 45 8b 4a bc b8 66 71 bd
       0.17991927 0.037067473 -0.012362306 -0.05893585
000120 de 2e 8b be 52 9b 87 be fc 07 56 3e 09 90 2a be
       -0.27184194 -0.26485687 0.20901483 -0.16656508
000130 7d 33 e6 3d 00 6c af 3c 7d 64 6c 3e 20 3d eb 3d
       0.11240289 0.021413803 0.23085208 0.11486268
000140 25 29 e0 bd b3 ac 40 3e 36 03 28 be d7 8a d1 3d
       -0.10945348 0.1881588 -0.16407475 0.1023156
000150 6c ae 13 3e c3 09 09 3d 4d e0 4d 3e a4 db f3 3e
       0.14422005 0.033456575 0.20105095 0.4762851
000160 a8 13 da bc 98 58 0b bf aa ec 02 3e b2 2b 03 bf
       -0.026620701 -0.5443206 0.12785593 -0.5123855
000170 e6 73 35 be 23 a3 08 3e d0 21 ba bd 6c ad 1d 3e
       -0.17719993 0.13343482 -0.090884805 0.15398186
000180 a7 82 00 3e 3e f9 0b 3d 29 aa 89 be 21 46 ca be
       0.1254984 0.034173243 -0.26887634 -0.3950663
000190 6f 54 a0 be 4c b4 ea 3d 66 74 0d be 22 e0 3e 3d
       -0.31314418 0.1146017 -0.13813934 0.04660047
0001a0 fb ea 89 3e f4 fa c2 3e d7 d9 12 3f d6 bb e9 bd
       0.26937088 0.38082087 0.5736365 -0.1141278
0001b0 46 be 72 be e1 f8 85 bd 93 3a c4 bd 0b e9 5a 3e
       -0.23705396 -0.065416105 -0.09581485 0.21377961
0001c0 3c 3e 20 bd 70 94 e9 be c0 41 04 be f3 6c 85 3d
       -0.03912185 -0.4562106 -0.12915707 0.06514921
0001d0 99 81 b2 bd b4 6b 42 3e 0a 6c 4c bf 59 0e 3e 3d
       -0.08716125 0.18986398 -0.79852355 0.0464004
0001e0 18 64 ca 3d 06 7e 82 3e 9f be 86 be 25 3e 83 bd
       0.098823726 0.25486773 -0.26317307 -0.064083375
0001f0 4c a0 14 bf c9 3e 96 3d 6a 30 61 bd c8 63 16 3e
       -0.58057094 0.07336194 -0.054977812 0.14686501
000200 53 25 ee 3d d5 1d fc bd 29 7f 80 bc 68 d0 ce bc
       0.11628213 -0.123103775 -0.015685635 -0.02524586
000210 54 f1 a8 3d 6c c0 73 bd dc 3a 4b bd 19 05 9a 3d
       0.08249155 -0.05950968 -0.04961668 0.075205036
000220 d5 d2 04 be 0b ea 2d be aa 7d 08 be e5 dd e7 bd
       -0.12971051 -0.16983812 -0.13329187 -0.1132162
000230 a7 4a 50 be 5a 51 3f be 67 1b 3b 3e 83 ea 4e bd
       -0.20340978 -0.18683377 0.18272172 -0.050516617
000240 4b 4c 57 be 8d a7 9f 3d 50 23 c5 3d f4 62 ae 3d
       -0.21025197 0.0779563 0.09625876 0.085149676
000250 14 60 ae bd 36 ab 99 3d 17 7d 28 bd 3d 45 2f 3c
       -0.08514419 0.07503359 -0.04113492 0.01069766
000260 27 2f 58 3d 19 6c 8a be fd 68 22 be ab 30 32 3b
       0.052779343 -0.27035597 -0.15860362 0.0027189653
000270 8c 77 26 be 42 13 0d be 75 0b 92 bd 27 ab 1e be
       -0.16256541 -0.13776878 -0.071310915 -0.15494977
000280 58 ca 90 be 53 34 90 3d b1 73 6b 3d 73 84 64 be
       -0.28279376 0.0704123 0.05748338 -0.2231615
000290 05 34 d3 bb e0 19 bd bd cb bd 33 3e e3 78 7b 3d
       -0.00644541 -0.09233451 0.17552869 0.061394583
0002a0 74 d7 c6 3d 96 93 59 bc e6 d5 11 3d 92 84 91 bd
       0.09709063 -0.013279816 0.03560438 -0.07105364
0002b0 40 90 42 3e 41 e0 69 be ee dd 92 be 27 a4 5f 3d
       0.1900034 -0.22839452 -0.28684944 0.054599907
0002c0 7c ff 1a be c3 a0 2d bc 98 c2 cd bb 03 36 9c 3d
       -0.15136522 -0.010597411 -0.006279301 0.076274894
0002d0 6d 8d 91 bd b3 43 cf bd 7b 96 2f 3d e1 de 57 3d
       -0.07107053 -0.101203345 0.04286812 0.05270279
0002e0 2d c0 92 bd d8 19 b6 3c 2d cc 3d be c9 91 c4 3d
       -0.07165561 0.02222912 -0.18534918 0.09598119
0002f0 79 10 32 3e 31 14 b6 3c df 7c 1f bd 28 d2 7b be
       0.17389096 0.022226425 -0.038937446 -0.24591887
000300 f0 50 7d 3c 2e b0 74 3d 9a 72 1c bd 2d 05 e1 bc
       0.015461192 0.05973833 -0.03819523 -0.027468288
000310 1d d6 41 bd b4 02 64 be df eb 40 bd 50 68 9b bd
       -0.047323335 -0.22266656 -0.047099944 -0.075882554
000320 e7 4a b3 3d a6 09 be bd fe a0 91 be 22 82 69 be
       0.08754521 -0.09279184 -0.2844314 -0.22803548
000330 7d 58 6c be a5 32 f5 bd 23 df eb bd 51 d3 48 bd
       -0.2308063 -0.1197255 -0.11517169 -0.049029652
000340 af 10 81 bc db a9 09 3e 21 ed cf 3d 32 3c f4 bc
       -0.015755026 0.13443701 0.101526506 -0.02981386
000350 90 49 9e bd 41 42 e2 bd f0 dc b8 3c 4a 2b 28 be
       -0.07728875 -0.11047793 0.022566289 -0.16422763
000360 4e 1f 76 bd c1 b0 6c be 75 2d e9 3d 5c 7a 3b be
       -0.06008845 -0.23114301 0.11385623 -0.18308395
000370 58 f4 08 3d 60 5e 25 3e ff 71 b6 bd 19 83 88 be
       0.03343615 0.16149282 -0.08908462 -0.2666252
000380 dd c0 62 bd b5 c3 1d be 19 0e c3 3d 29 af 17 be
       -0.05535971 -0.15406688 0.09524173 -0.14812912
000390 b2 c3 93 be ed 6e 42 3d 0d 3b 4a bd 23 17 a9 bd
       -0.2886024 0.04746907 -0.04937272 -0.08256366
0003a0 1e fe 64 bc ba e7 37 be 54 83 96 bd cb de 97 3e
       -0.013976602 -0.1795949 -0.073492676 0.29662165
0003b0 aa 79 1d bd 8b be 3c be 54 56 76 bd 74 f7 2e be
       -0.038446106 -0.18432061 -0.060140923 -0.17086583
0003c0 0c f5 1c 3d 22 f1 b4 be f1 fe a3 be b1 49 46 be
       0.038319632 -0.3534022 -0.32030442 -0.19364049
0003d0 13 3b 4f 3d 69 4b 53 bd bc 30 d7 bc b5 4e c2 bd
       0.050593447 -0.05158559 -0.026268356 -0.094876684
0003e0 ae 13 cd bd 3f c5 05 be 24 7f 08 3e 1f 29 60 bd
       -0.10013519 -0.13063525 0.1332975 -0.054726716
0003f0 6d 30 e8 bd 10 d0 64 3d 64 66 cb bd 10 12 84 3c
       -0.113373615 0.055862486 -0.09931639 0.016121894

fc3.bias f4 [64]
000000 ad 42 d0 be ba 03 c0 bd 54 0c bf 3e 1f 2b 5c 3e
       -0.4067587 -0.09375711 0.37314093 0.21500824
000010 46 bc 06 bf f1 de 6e 3d ac fb 52 be f3 3a 46 3e
       -0.5263103 0.058318082 -0.20603818 0.19358425
000020 44 de d0 3e b8 aa 18 3f 27 22 44 3f e0 6a 13 3d
       0.40794575 0.59635496 0.7661461 0.035990596
000030 8e 59 bf be 4f 62 82 3e 68 d9 96 3c a4 18 c7 3e
       -0.37373012 0.25465629 0.018414214 0.38885987
000040 ee d3 57 3e d7 cc a7 3c 3a a4 b3 bd 97 75 39 3e
       0.21076939 0.020483417 -0.08771558 0.18111263
000050 39 d2 72 3d 10 d6 10 3f 5c 01 28 bf ae 78 8b be
       0.059282515 0.56576633 -0.65627074 -0.2724051
000060 bf fd dc 3b 17 05 9d bd 41 f7 f5 3e 7c 61 08 3f
       0.006744116 -0.076669864 0.48040202 0.5327375
000070 28 76 07 3f 3f 23 bf 3b fc 0d f4 3e 7d 01 af 3e
       0.5291467 0.005833059 0.4766692 0.34180823
000080 21 ac 1c be 48 68 d0 be 6c 47 45 3e bd da a5 3e
       -0.15300037 -0.4070456 0.19265527 0.32393447
000090 fe 96 af 3e 19 c1 f6 bd 97 2b 1c 3f 5e 3a fe bd
       0.34294885 -0.12048549 0.6100401 -0.124134764
0000a0 1b 0f 29 3e 39 1f 42 bc d8 04 ac 3e a4 1e a9 be
       0.16509669 -0.011848264 0.33597445 -0.3303119
0000b0 84 59 00 bf 33 cd 18 3e b0 69 08 bd fb ad b3 3a
       -0.5013659 0.14922027 -0.033303916 0.0013708466
0000c0 19 f4 fa bd 7d 3d 3f 3f ab ea 96 3e 6e 20 8b be
       -0.12253589 0.747032 0.29475912 -0.2717318
0000d0 aa 52 a7 bd 38 8e 9d 3e ab b4 e2 3c f1 3d 23 3e
       -0.08170064 0.30772567 0.02767404 0.15941598
0000e0 20 ab 7c be d2 53 f1 3d da 4e e8 3e c1 28 95 3e
       -0.24674654 0.117835656 0.4537266 0.29132655
0000f0 be 87 8c bd e4 ff 93 3d ae 11 01 be ae 7e 30 3f
       -0.06861828 0.07226542 -0.126044 0.689433

fc4.weight f4 [10, 64]
000000 2f b1 08 3d 0f 93 2f be d7 52 1b 3e 4e 42 60 3e
       0.0333721 -0.17145942 0.1516832 0.21900293
000010 02 50 06 bf 04 01 8f 3e 71 c8 9c be fc dd 18 3e
       -0.5246583 0.27930462 -0.30621675 0.1492843
000020 ac b3 15 be 0b c5 7b 3e 6b 26 6a 3e b5 81 05 3e
       -0.1461932 0.24586885 0.22866218 0.1303776
000030 e4 b4 2c bf ac 72 16 bf 00 00 27 bf bb f8 27 be
       -0.6746352 -0.58768725 -0.65234375 -0.16403477
000040 95 5e 9f bd 6c a7 81 bd b4 89 c6 3c aa 97 0e bf
       -0.07781712 -0.06330761 0.024235584 -0.5570017
000050 1d 4d 83 3a ad d1 52 bd 4e 87 ea ba a1 2a 09 be
       0.0010017488 -0.051469494 -0.0017893107 -0.13395168
000060 25 8d 76 bf 2b 8a ce 3e b9 03 ea be ec 89 41 bd
       -0.9630912 0.4033979 -0.45705965 -0.047250673
000070 7f b5 30 bf 59 83 0d be 90 a3 bd be 00 63 90 bd
       -0.6902694 -0.13819636 -0.3703885 -0.07050133
000080 7f d2 57 bf dc dc 59 3d c3 c4 06 bf f3 78 8a 3e
       -0.84305567 0.053189144 -0.52643985 0.27045402
000090 49 a4 cc 3d 6e 3c 4e bc 62 99 21 3e 97 05 1e 3c
       0.099922724 -0.01258765 0.15781167 0.009644887
0000a0 e3 d1 87 3e ab b7 e4 3c 5c 0f 86 bf 19 de cd 3c
       0.26527318 0.027919611 -1.0473437 0.025130318
0000b0 e3 8d 56 3e 57 f9 3b 3e 10 8d 21 3e 65 d9 36 be
       0.20952563 0.18356834 0.15776467 -0.17856367
0000c0 4e 69 1a 3d a3 a5 b0 be e4 8d 0a bf f6 f1 e9 be
       0.037698083 -0.3450137 -0.5412276 -0.45692414
0000d0 8a 75 4c bf 0c c6 4d bf f7 b9 e3 be ca 77 8e 3e
       -0.7986685 -0.8038032 -0.44477817 0.27825767
0000e0 6f 98 56 3e e1 c1 da 3d 78 fb 15 bf 8c 39 b5 3c
       0.20956586 0.10681511 -0.58586836 0.022122167
0000f0 bc 18 af 3d bf 37 bd bb 64 09 4d 3e 39 df d3 be
       0.085496396 -0.0057744677 0.20023113 -0.41381243
000100 5b 3c 50 3e fa 4a 2f be 61 cc 00 bf d0 3e 5a 3e
       0.20335524 -0.17118445 -0.5031186 0.21313024
000110 b8 23 18 3e 3a 4f 87 3e 02 75 e4 be 2a 69 87 3e
       0.14857376 0.26427633 -0.4462052 0.2644742
000120 a3 a5 55 bf 2e 62 0f bf d0 e9 04 bd a2 4f fd 3d
       -0.83455867 -0.56009185 -0.032449543 0.123687044
000130 3a 38 02 3f 9d 7b 28 3d 64 a8 5b bf 5d c9 a0 3e
       0.50867045 0.04113351 -0.8580382 0.31403628
000140 94 85 db be ca ea ba bd 48 41 c6 ba e0 8f 10 bf
       -0.4287535 -0.09126814 -0.0015125657 -0.56469536
000150 0a 8a 37 3e c5 5d 11 bd ea d5 00 3f f6 8a e9 be
       0.17923751 -0.035489816 0.50326407 -0.4561383
000160 5c 38 6f be 8f dc c0 3d 4a ab 7f be 20 36 e8 3c
       -0.23361343 0.09417068 -0.24967685 0.028346121
000170 52 85 89 be 31 23 67 3d 17 b0 aa bd 77 22 84 3e
       -0.26859528 0.056430046 -0.08334368 0.25807545
000180 32 a4 22 3e a1 fa 80 bf c2 5a f9 be d8 76 1e bf
       0.15882948 -1.0076486 -0.48702055 -0.6190009
000190 27 67 93 be 72 09 2f bd cb 3c a7 be fc b1 99 bd
       -0.28789636 -0.042733617 -0.3266357 -0.07504651
0001a0 f3 b0 97 bd 68 5f 53 bd 7d 05 76 3e 16 75 fc 3d
       -0.07406797 -0.05160466 0.24025531 0.1232702
0001b0 1a b2 48 3e ea 28 0b 3d 98 04 d8 bd 54 74 33 3d
       0.1959919 0.033974566 -0.10547751 0.04381211
0001c0 38 1d 57 3e 5c 14 88 be 77 95 52 bf a9 fb 1d 3e
       0.2100724 -0.26578033 -0.82259315 0.15428032
0001d0 76 87 37 bd 4f c5 07 bd ac ba 55 3e 34 f8 0d bf
       -0.04480692 -0.033147153 0.20871991 -0.5545685
0001e0 bf a6 a8 bc c2 23 6f bf 98 29 27 bf 74 27 6a be
       -0.020587323 -0.9341394 -0.6529784 -0.22866613
0001f0 2d 18 cd 3b 85 dc 36 be 7c b4 fd be a6 b7 50 be
       0.0062589855 -0.17857559 -0.4955176 -0.20382556
000200 b7 ac 1b 3e 41 05 f1 bd 8a 01 15 3e 5d 59 08 be
       0.15202604 -0.1176858 0.14551368 -0.1331534
000210 8c 57 5e bc bf 04 03 bf 6d 7d 15 3e 00 76 8d 3d
       -0.0135706775 -0.51179117 0.14598627 0.06907272
000220 45 21 49 3e 4a 37 7b be 5c 2f 5b 3e f8 b4 4a be
       0.19641598 -0.2453281 0.21404785 -0.19795597
000230 66 b8 bb be 70 60 d7 bd d8 7b da 3d 83 8d 6b 3e
       -0.36664122 -0.10516441 0.106681526 0.23003201
000240 e4 e1 7d be 62 5f 0a 3f a5 8c d3 ba 3b 63 30 3e
       -0.24793202 0.5405179 -0.0016139938 0.17225353
000250 a5 91 42 3d 69 e0 ce 3e 28 c1 a4 bd c7 bd 33 bf
       0.04750218 0.40405586 -0.08044654 -0.7021145
000260 12 0c f9 3d 2c 1c f7 3d c8 8f fc 3d 43 85 6c 3e
       0.12160505 0.1206592 0.123321116 0.2309771
000270 6b 96 0d 3d 12 f1 b3 3d 78 fa af be a4 da 39 3e
       0.034567278 0.08786215 -0.3437078 0.18149811
000280 b2 78 17 bf 60 d0 2b 3d fe 4e fa be 61 fd f7 be
       -0.5916854 0.04194677 -0.4888839 -0.484355
000290 58 7a 40 3d ae 7b 79 3d 81 c7 56 bd 03 41 9b bd
       0.046991676 0.060908966 -0.052436356 -0.075807594
0002a0 d7 60 98 3e ba 5a e8 be b3 59 34 bf 9e 61 37 bf
       0.29761383 -0.4538172 -0.7044937 -0.71633327
0002b0 b3 8b 08 bf a1 4a 2d bf ef 10 6e be 8e 78 12 3d
       -0.53338164 -0.67692 -0.23248647 0.0357595
0002c0 4e c7 9b be 71 c7 97 bc 4e 66 a3 3d 60 89 01 bf
       -0.30425495 -0.018527718 0.079784974 -0.5060024
0002d0 c3 54 0f 3e bb 32 53 3d 8b 2a 34 3e d8 ca 4f bf
       0.13997178 0.051562052 0.17594354 -0.8116889
0002e0 7d d8 5e bf 6b e7 3e 3e 73 fc 71 3e dc d9 80 3e
       -0.87049085 0.18642966 0.23631458 0.25166214
0002f0 c8 46 86 3c 50 40 f8 3a d8 ba 93 be 73 13 59 bf
       0.016391173 0.0018940065 -0.28853488 -0.847953
000300 ac 1f 11 bf 74 10 0c bc 32 6e 18 3e b5 32 84 bf
       -0.5668895 -0.008548845 0.14885786 -1.0327975
000310 86 a8 f6 be 69 fc 1e 3e e0 cb 94 be 11 92 d9 bc
       -0.48175448 0.15525974 -0.29061794 -0.026558908
000320 00 7b a4 3d bb 03 25 3e 7a d2 10 be 22 11 55 3d
       0.08031273 0.16114704 -0.1414279 0.052018292
000330 9c dd 9c be 97 3a c7 3e 9d da 87 bd e2 9a 57 bf
       -0.30637825 0.38911888 -0.06633494 -0.8422071
000340 de a4 8b 3d e4 02 a7 be 8d 8f af bc 28 cb 61 be
       0.06818555 -0.32619393 -0.021430755 -0.22050154
000350 c9 78 b3 bb 96 17 19 be 99 b7 ec be 67 83 40 3d
       -0.005477045 -0.14950404 -0.46233824 0.047000315
000360 38 95 40 3e 4f 07 8f bd 08 6f 2e 3d b3 17 45 3e
       0.18806922 -0.06983816 0.042586356 0.19247322
000370 95 35 c1 3d 0d d8 f0 bd 50 c6 a7 3e 22 9b 03 bf
       0.09434048 -0.117599584 0.32768488 -0.5140859
000380 6d 3f 27 3d 30 19 b4 bb a8 49 ad 3e c6 57 16 bd
       0.040831972 -0.0054961666 0.33845258 -0.0367048
000390 60 77 04 bf 30 83 88 bc 60 c7 29 3d d8 14 b0 bd
       -0.5174465 -0.016664118 0.041449904 -0.08597726
0003a0 dd a7 97 3d 6f ce 96 bd fe 4f fd bd 56 36 ed 3c
       0.07405064 -0.07363593 -0.12368773 0.028956573
0003b0 84 4e 2a 3e 88 a1 dd be 19 98 00 3d 9d fc 7f bc
       0.16631514 -0.432873 0.03139505 -0.015624193
0003c0 5f 94 70 3d 3d 53 11 bf 9b 42 3f 3e 57 bb fe bd
       0.058735248 -0.56767637 0.18677752 -0.12438076
0003d0 89 2d 1c be a2 99 b5 3e f5 45 fc 3c 22 a8 81 3e
       -0.15251745 0.35468775 0.030795077 0.25323588
0003e0 57 ed 16 3d 61 bc 06 bf ed 00 39 bc 73 20 bc 3e
       0.03684744 -0.52631193 -0.011291725 0.36743507
0003f0 6a a1 cc bd d3 6a 49 3d 35 0f 3c 3e 23 69 d3 3e
       -0.09991725 0.04917414 0.18365176 0.4129115

fc4.bias f4 [10]
000000 a3 bc 08 be 94 7e 0e bf b2 78 df 3e 1a 19 a8 3e
       -0.13353209 -0.5566189 0.4364677 0.3283165
000010 a3 12 26 bf af d4 23 be 5f ca 83 3e 84 f5 dc 3e
       -0.6487219 -0.15999101 0.25740334 0.43156064
000020 33 7f f8 be 61 c2 47 be
       -0.48534545 -0.19507743
