deep-learning/HW3/undergrad_code/cifar_net.pth (torch, 250887 bytes, 10 tensors)

conv1.weight f4 [6, 3, 5, 5]
0	0xba2217dc	-0.0006183365
1	0x3e5f1ae9	0.21787609
2	0x3da148d4	0.07875219
3	0xbd5e350d	-0.054249812
4	0x3e9b5200	0.30336
5	0x3e3d088e	0.18460295
6	0xbdade5b4	-0.08491078
7	0xbf3cdae5	-0.73771507
8	0x3d489b86	0.048976444
9	0x3d2f4a87	0.042795684
10	0x3e792dab	0.24333827
11	0x3f41518c	0.75515056
12	0x3fc7e2b3	1.5616058
13	0x3f72f9e0	0.9491253
14	0xbeca32ff	-0.39492032
15	0xbf16402a	-0.58691657
16	0x3e3d9d03	0.18516926
17	0xbdba84a6	-0.09107332
18	0xbf0b30f1	-0.54371554
19	0xbefea456	-0.49734753
20	0xbd9738d3	-0.07383885
21	0xbf23785b	-0.6385552
22	0xbf940fc5	-1.1567312
23	0xbf2360c2	-0.63819516
24	0x3eda7693	0.4266859
25	0xbdb0770b	-0.08616456
26	0x3e450b9b	0.19242708
27	0x3dd0d70c	0.10197267
28	0x3e1e2fb3	0.15447883
29	0xbd456ff8	-0.048202485
30	0x3dcec6c7	0.100965075
31	0xbe437348	-0.19086945
32	0xbf4aee49	-0.79269844
33	0xbd857a9d	-0.06517527
34	0xbe12d27d	-0.14338107
35	0x3edbc460	0.4292326
36	0x3f93d5e1	1.1549646
37	0x3fe16a25	1.7610518
38	0x3f94938a	1.1607525
39	0xbe513e75	-0.20433982
40	0xbe813eb0	-0.2524314
41	0x3ee5f439	0.4491289
42	0x3e82c947	0.25544187
43	0xbedaa2c9	-0.4270232
44	0xbef68eef	-0.48155925
45	0xbea4a7f2	-0.32159382
46	0xbf7dbea8	-0.99119043
47	0xbf96c35e	-1.1778371
48	0xbf357abf	-0.7089042
49	0x3e24fdd5	0.16112454
50	0x3c4a999d	0.012365726
51	0xbdf36ac0	-0.11885595
52	0x3e1a0095	0.15039285
53	0xbd07a891	-0.03311974
54	0x3e74f8fd	0.23923106
55	0xbefdd908	-0.49579644
56	0xbf98d14d	-1.1938874
57	0xbfc664bc	-1.5499492
58	0xbf00d24d	-0.50320894
59	0xbe2d62bd	-0.16932197
60	0x3d8d0166	0.06885032
61	0x3e08d801	0.13363649
62	0x3f53387d	0.8250807
63	0x3f1cf5e6	0.6131271
64	0x3c14d803	0.009084704
65	0x3e157aa4	0.14597565
66	0x3f16e68d	0.5894554
67	0x3e8fd3bd	0.2809123
68	0x3ce2f764	0.027705856
69	0x3d85d3f6	0.06534569
70	0x3edbf571	0.42960694
71	0x3d96af2b	0.073576294
72	0xbea971d0	-0.33094645
73	0x3e114c86	0.14189348
74	0x3f35ebc6	0.71062887
75	0x3f3a28f2	0.7271873
76	0x3ede8c07	0.43466207
77	0x3ea80ff8	0.32824683
78	0x3e918818	0.28424144
79	0x3ec0c485	0.37649933
80	0x3e036d4b	0.1283466
81	0xbdd6105d	-0.1045234
82	0xbeb1b117	-0.3470542
83	0xbe7d252e	-0.24721214
84	0x3ddc6362	0.10761143
85	0xbe43b3df	-0.19111584
86	0xbea26892	-0.31720406
87	0xbecfaf09	-0.4056323
88	0xbea42535	-0.32059637
89	0xbdbbaba4	-0.09163597
90	0xbe8a252c	-0.26981485
91	0xbf194b97	-0.59880966
92	0xbf02855e	-0.5098475
93	0xbee9090d	-0.45514718
94	0xbed722d0	-0.42018747
95	0xbe12fadb	-0.14353506
96	0xbe83f885	-0.25775543
97	0xbeeca7e7	-0.4622185
98	0xbec796a0	-0.38982105
99	0xbe9036b4	-0.28166735
100	0x3d62207b	0.055206757
101	0xbd846134	-0.064638525
102	0xbd848c1d	-0.06472037
103	0xbd8fa068	-0.07013017
104	0x3e1455d0	0.1448586
105	0xbe4346b7	-0.19069944
106	0xbe18eba8	-0.14933646
107	0xbdd5e76c	-0.10444531
108	0xbe6abf1c	-0.22924465
109	0x3d6dbac7	0.058039453
110	0xbca046de	-0.019565042
111	0xbd608eab	-0.05482356
112	0xbcc2ade3	-0.023764556
113	0xbd033151	-0.032029454
114	0xbdde9423	-0.108680986
115	0x3dbc2fa3	0.091887735
116	0xbe7e23b3	-0.24818306
117	0xbd695216	-0.05696305
118	0xbda29aa6	-0.07939653
119	0xbd9faab8	-0.07796234
120	0xbd95784f	-0.07298338
121	0xbdefcc98	-0.11708945
122	0xbde80df1	-0.11330784
123	0xbe645218	-0.22296941
124	0xbda923b1	-0.08258761
125	0xbeb9e9cb	-0.36311182
126	0xbe45e2dd	-0.19324823
127	0xbddb4fc8	-0.107085764
128	0xbe09079b	-0.13381808
129	0xbea21c44	-0.3166219
130	0xbdfd9e00	-0.12383652
131	0xbd4d1bd5	-0.05007537
132	0x3de5fc63	0.112297796
133	0xbe167147	-0.1469165
134	0xbdba3e25	-0.090938844
135	0x3dff5cf9	0.12468905
136	0x3ec91121	0.3927088
137	0x3ec18eaf	0.3780417
138	0x3e514164	0.20435101
139	0x3df06df8	0.11739725
140	0x3efaae10	0.48960924
141	0x3eb8642d	0.36013928
142	0x3eeed59a	0.4664734
143	0x3eafb321	0.34316352
144	0x3e586765	0.21133192
145	0x3f029e50	0.51022816
146	0x3efde747	0.49590513
147	0x3f2137e0	0.62975883
148	0x3f11f989	0.57021385
149	0x3f14bc12	0.5809947
150	0x3e7ecfc8	0.2488395
151	0x3cb3b811	0.021938356
152	0x3dec54e9	0.11539633
153	0x3e9f36a9	0.3109639
154	0x3ead3e3f	0.33836553
155	0xbe7e45ab	-0.24831264
156	0xbeea6bc6	-0.4578535
157	0xbec888c6	-0.3916685
158	0xbe0ba080	-0.13635445
159	0x3dfb56b7	0.12272399
160	0xbef92ff8	-0.4866941
161	0xbf2a6f21	-0.6657582
162	0xbef2db5b	-0.4743298
163	0xbeb26579	-0.34843042
164	0xbcbbd0a3	-0.022926634
165	0xbe1e346c	-0.15449685
166	0xbea58eb8	-0.32335448
167	0xbe016617	-0.126366
168	0x3dac1b08	0.08403593
169	0x3e79b9fe	0.24387357
170	0x3ea24cc5	0.31699196
171	0x3dc652fb	0.09683796
172	0x3e995e1f	0.2995462
173	0x3e9be97e	0.30451578
174	0x3eb89fce	0.3605942
175	0xbe72ee12	-0.23723629
176	0xbded3915	-0.11583153
177	0xbdd82b63	-0.1055515
178	0xbe52f688	-0.20601857
179	0xbe870a17	-0.26374885
180	0xbdb948e5	-0.09047107
181	0x3e0f34b4	0.13984948
182	0x3e61df7f	0.22057913
183	0x3d41afd0	0.04728681
184	0xbc96be1d	-0.0184012
185	0xbce8db81	-0.02842498
186	0x3e0359dd	0.12827249
187	0x3dc03561	0.09385181
188	0xbd403af2	-0.046931215
189	0xbe98ad1f	-0.2981958
190	0xbe2806f9	-0.1640891
191	0x3d482663	0.048864733
192	0x3b610b93	0.0034339174
193	0xbe27f294	-0.1640113
194	0xbdf63c50	-0.120232224
195	0xbe7ffb7a	-0.24998274
196	0xbdbab4b2	-0.09116496
197	0xbe8b2659	-0.27177694
198	0xbe65e346	-0.22449979
199	0x3d00d7d7	0.03145584
200	0x3e61e4f6	0.22059998
201	0x3eebed31	0.460794
202	0x3e86a164	0.26295006
203	0xbd90b013	-0.070648335
204	0xbede9223	-0.43470868
205	0x3ebe5681	0.37175372
206	0x3f3021ab	0.68801373
207	0x3f162109	0.5864416
208	0x3eb839fb	0.35981736
209	0xbe0c5b7b	-0.13706772
210	0x3ee7c846	0.45269984
211	0x3f556bb0	0.83367443
212	0x3ed22be7	0.4104912
213	0x3ec3028d	0.38087884
214	0xbe4fb176	-0.2028254
215	0x3eccd426	0.40005606
216	0x3f0852d8	0.5325141
217	0x3ecda969	0.40168312
218	0x3dcd9003	0.10037234
219	0xbd1c1921	-0.038109902
220	0xbe988727	-0.29790613
221	0x3afb611f	0.0019178725
222	0xbe0e25af	-0.13881563
223	0xbe846f03	-0.25865945
224	0xbe8bc915	-0.2730185
225	0xbe35771f	-0.17721222
226	0xbf0cf8f9	-0.550674
227	0xbf4128d3	-0.7545292
228	0xbf038df8	-0.513885
229	0xbe96cbb5	-0.2945229
230	0xbe544166	-0.20728073
231	0xbefb447b	-0.49075684
232	0xbeb7f50f	-0.35929152
233	0xbda19fc5	-0.07891802
234	0xbe9bf2a7	-0.30458567
235	0xbe2a1118	-0.16608083
236	0x3f0034c2	0.500805
237	0x3f55c7f9	0.8350826
238	0x3e361404	0.17781073
239	0x3e5a92b6	0.21345028
240	0x3d95a0cb	0.073060594
241	0x3ef562e3	0.47927007
242	0x3ec069c2	0.37580687
243	0x3ee8ae83	0.45445642
244	0x3e42ffa2	0.19042829
245	0x3f023e93	0.5087673
246	0x3e0c24a8	0.13685858
247	0xba38faa7	-0.0007056393
248	0x3e8e7e20	0.278306
249	0x3e776d29	0.24162735
250	0xbbfd2be9	-0.0077261818
251	0xbe490ff3	-0.1963499
252	0xbeb0c6f3	-0.34526786
253	0xbd50726c	-0.05089037
254	0x3e55575b	0.20834105
255	0x3e81af34	0.25328982

conv1.bias f4 [6]
0	0xbf51e4c0	-0.8198967
1	0x3de2fe1d	0.110836245
2	0x3f04c91a	0.51869357
3	0xbea6e02b	-0.32592902
4	0xbf0c182b	-0.5472438
5	0xbf17d473	-0.59308547

conv2.weight f4 [16, 6, 5, 5]
0	0xbe0dad4a	-0.13835636
1	0xbe59d24e	-0.21271631
2	0xbe6d7ffe	-0.23193356
3	0xbeac7abd	-0.33687392
4	0xbeb7b008	-0.3587649
5	0xbdfa3fb3	-0.12219181
6	0xbe2bf379	-0.16792096
7	0xbc889188	-0.016670957
8	0x3c589a2e	0.013220353
9	0x3e7beb33	0.2460144
10	0xbdbb5e15	-0.09148804
11	0x3e353a3c	0.17697996
12	0xbde4e37c	-0.11176202
13	0x3d8c0824	0.0683749
14	0x3e9acfd5	0.30236688
15	0xbd7862be	-0.060641043
16	0xbe8dbb7d	-0.27682105
17	0xbedb401a	-0.42822343
18	0xbe367e0e	-0.17821524
19	0x3cf40098	0.02978544
20	0xbeede711	-0.46465352
21	0xbea031b4	-0.3128792
22	0xbe7c3bae	-0.24632141
23	0xbdc11f5c	-0.094298095
24	0xbe9648c9	-0.29352406
25	0x3da232c9	0.07919843
26	0xbe603bab	-0.21897762
27	0xbe9feb30	-0.3123412
28	0xbe4886fa	-0.1958274
29	0x3e704992	0.23465565
30	0x3e3fe9fc	0.18741602
31	0xbdbaa4b8	-0.09113449
32	0xbe934b21	-0.28768256
33	0xbe2a47e7	-0.16628991
34	0x3e8d5501	0.27603915
35	0x3e4c4d78	0.19951427
36	0xbe47f5f6	-0.1952742
37	0xbeaf4e70	-0.3423953
38	0xbe667125	-0.22504099
39	0x3d8cfad9	0.06883783
40	0x3dc56ede	0.09640287
41	0xbe271a20	-0.1631856
42	0xbec799ca	-0.3898452
43	0xbe277a9e	-0.16355368
44	0x3e711bb1	0.2354572
45	0xbe439018	-0.19097936
46	0xbe9d82d3	-0.30763873
47	0xbee93990	-0.4555173
48	0xbe9e0bf2	-0.3086849
49	0xbe5f57ae	-0.21810791
50	0x3c8c8953	0.017155325
51	0xbc48b9b5	-0.012251307
52	0xbd4634ce	-0.048390202
53	0x3d11baa7	0.035578396
54	0x3e08a875	0.13345511
55	0x3e205134	0.15655977
56	0xbd1f310a	-0.038865127
57	0xbe30c4ba	-0.17262545
58	0xba3bdcb9	-0.0007166374
59	0x3d32061a	0.04346285
60	0x3e0cb861	0.1374221
61	0x3d86cc7f	0.06581973
62	0xbcf51504	-0.029917248
63	0x3dd5a3ff	0.104316704
64	0x3e4130ef	0.18866323
65	0xbcec9ed8	-0.028884336
66	0xbe2ab567	-0.16670762
67	0x3d809caf	0.06279885
68	0xbde20b44	-0.11037305
69	0xbc700b5b	-0.014651145
70	0x3e9a3770	0.3012042
71	0xbe6a3476	-0.22871575
72	0xbd79d08d	-0.060989905
73	0xbdcce147	-0.10003906
74	0x3ba43879	0.005011615
75	0x3f06c7ef	0.52648824
76	0x3ecaf792	0.39642006
77	0x3edf6925	0.43634906
78	0x3e0f7eda	0.14013234
79	0xbefea0f9	-0.49732187
80	0xbe139c56	-0.14415106
81	0xbeb379cf	-0.3505387
82	0x3e96c79c	0.29449165
83	0x3eaaa925	0.33332172
84	0xbcb2d0be	-0.021828052
85	0xbe4dfacc	-0.20115203
86	0xbe66f613	-0.22554807
87	0x3ec51946	0.38495845
88	0x3eb8f0ae	0.36121124
89	0x3e29bdc8	0.16576302
90	0x3d0c1752	0.034201927
91	0x3d8f336c	0.0699223
92	0x3e0ba1f4	0.13635999
93	0x3e7440cf	0.23852848
94	0x3e6b3d3d	0.2297258
95	0xbd84d6bb	-0.06486269
96	0xbc1cafc5	-0.009563391
97	0xbe8468a1	-0.25861076
98	0xbd68a80a	-0.05680088
99	0xbd371823	-0.044700753
100	0xbea914d5	-0.33023706
101	0xbe3814fa	-0.17976752
102	0xbeb4fd95	-0.35349718
103	0xbe0ab673	-0.13546161
104	0xbe171a3d	-0.14756103
105	0x3e012ffc	0.12615961
106	0xbdf65642	-0.12028171
107	0xbec9d934	-0.39423525
108	0x3e1f849e	0.15577933
109	0xbe3bd852	-0.18344238
110	0x3e4e6b23	0.20158057
111	0xbe13899c	-0.14407963
112	0xbdeda1b4	-0.11603108
113	0xbcab8c0b	-0.020940801
114	0x3dac17d1	0.0840298
115	0x3ef14969	0.4712632
116	0xbdd707c5	-0.10499529
117	0x3e305979	0.17221631
118	0x3ca379f1	0.019955607
119	0x3d5aa096	0.053375803
120	0x3f265ee6	0.64988554
121	0xbecd2423	-0.40066633
122	0xbcc55c0e	-0.024091747
123	0x3da729e4	0.08162287
124	0x3db83d2e	0.08996044
125	0x3d2c8d71	0.042127077
126	0x3dd70d97	0.10500639
127	0x3d1fbeaa	0.03900019
128	0x3cee87a8	0.02911742
129	0x3dce2b36	0.100668356
130	0xbb39d15c	-0.0028353548
131	0x3eb44780	0.352108
132	0xbd1e98b3	-0.038719844
133	0xbc439e6a	-0.011939624
134	0x3cdfd463	0.027322954
135	0xbd5c4e5e	-0.053785674
136	0x3f00a78b	0.5025565
137	0x3c9842e2	0.01858658
138	0xbdaf3500	-0.08555031
139	0xbc2c02ab	-0.010498683
140	0x3e15d817	0.14633213
141	0x3ec3c9c9	0.38239887
142	0xbe85963a	-0.26091176
143	0x3d5ae006	0.0534363
144	0xbb704879	-0.003666429
145	0x3e13ebba	0.14445391
146	0x3cecd9c6	0.028912436
147	0xbe94ad0a	-0.29038268
148	0xbb74a4f2	-0.003732976
149	0x3cced4dd	0.025247985
150	0xbdd12217	-0.1021158
151	0xbe53e114	-0.20691329
152	0xbf0226e1	-0.50840575
153	0xbea82b44	-0.3284551
154	0xbd70df17	-0.058806505
155	0xbefee0a7	-0.4978077
156	0xbf19b7a8	-0.6004586
157	0xbf17155c	-0.59016967
158	0xbe86e1fc	-0.26344287
159	0x3d4508d1	0.04810411
160	0x3e224501	0.15846635
161	0xbeb2e7fd	-0.34942618
162	0xbf343a9e	-0.7040194
163	0xbf04b993	-0.51845664
164	0xbe8df21a	-0.2772377
165	0xbe2b0002	-0.16699222
166	0xbe6d4646	-0.23171338
167	0xbf39c3f7	-0.72564644
168	0xbf31ba10	-0.69424534
169	0xbe84e583	-0.25956354
170	0x3e2ee062	0.17077783
171	0xbe7832b9	-0.24238099
172	0xbe8bdb73	-0.27315864
173	0xbeab73c9	-0.33486775
174	0xbdb75b41	-0.08952952
175	0x3c90d53a	0.0176798
176	0xbdf874b4	-0.12131634
177	0xbbd5073f	-0.006501108
178	0xbc8482d8	-0.016175672
179	0x3d1b1675	0.037863214
180	0x3d9abd64	0.07555655
181	0xbd5842ae	-0.052797966
182	0xbde92afc	-0.11385152
183	0xbe303d83	-0.17210965
184	0x3dc6f4a1	0.09714628
185	0xbdb04744	-0.08607343
186	0xbe9e7f13	-0.30956325
187	0xbeb7cf50	-0.35900354
188	0xbe71f119	-0.23627128
189	0xbd33e7ef	-0.04392236
190	0x3e11134e	0.1416752
191	0xbe0dff4a	-0.13866916
192	0xbe82c1db	-0.25538525
193	0xbe3d4ba8	-0.18485892
194	0xbd3e1e01	-0.046415333
195	0x3e1bcf76	0.15215859
196	0xbdfeb66e	-0.124371395
197	0xbea356f0	-0.31902266
198	0xbe75b825	-0.23996027
199	0x3d4a7143	0.04942442
200	0x3d309215	0.043108065
201	0x3de0acf6	0.1097049
202	0x3e759779	0.23983563
203	0x3dde295c	0.108477324
204	0x3ec0f23e	0.37684816
205	0xbdef84e1	-0.116952665
206	0xbdaa5f3f	-0.08318948
207	0x3e9efd80	0.3105278
208	0x3e082e6c	0.13298959
209	0x3dd7227d	0.10504625
210	0xbe317648	-0.17330277
211	0xbe3ea389	-0.18617071
212	0x3dc73b5a	0.09728117
213	0x3de47c6c	0.11156544
214	0xbe001a19	-0.12509955
215	0xbd71e99c	-0.059060678
216	0xbdc76935	-0.097368635
217	0x3db8c470	0.090218425
218	0x3dcd4c0c	0.100242704
219	0xbe5e4f94	-0.21710044
220	0x3e19c9b6	0.15018353
221	0x3cda3b7a	0.026639689
222	0x3eba9e70	0.36449003
223	0x3ebce876	0.36896104
224	0x3e521614	0.20516235
225	0xbea071ce	-0.31336826
226	0xbe205c04	-0.15660101
227	0x3e74192e	0.2383773
228	0x3ef2cfce	0.47424167
229	0x3e2147f6	0.15750107
230	0xbecbc396	-0.39797658
231	0xbe02da1e	-0.12778518
232	0x3e03a4a9	0.12855782
233	0x3e911079	0.2833288
234	0xbddc4f9e	-0.10757373
235	0xbe2da771	-0.16958405
236	0xbe123c0a	-0.14280716
237	0xbd89cc16	-0.067283794
238	0xbe08a5b9	-0.13344468
239	0x3c87e2a0	0.016587555
240	0xbd4caf7f	-0.049972054
241	0xbe6b0fa0	-0.22955179
242	0xbeb3e9aa	-0.3513921
243	0xbec4971a	-0.3839653
244	0x3ea6ae70	0.3255496
245	0x3dcd9ac9	0.100392886
246	0x3d6519d8	0.05593285
247	0xbeb166e9	-0.34648827
248	0xbed11018	-0.4083259
249	0x3ed5dfe2	0.41772372
250	0xbdebe57a	-0.115183786
251	0x3e15bc11	0.14622523
252	0x3e14eded	0.14543886
253	0xbdc33d74	-0.09533206
254	0x3ea09c1f	0.3136911
255	0xbe476858	-0.19473398

conv2.bias f4 [16]
0	0xbfae9522	-1.3639262
1	0x3fa9fa59	1.3279525
2	0x404465cc	3.0687132
3	0x3d7bbf95	0.061462004
4	0x3fb808a6	1.4377639
5	0x3ec098ee	0.37616676
6	0xbda92394	-0.08258739
7	0xbf542d08	-0.8288121
8	0xbfd794e9	-1.6842319
9	0x3e4c49e1	0.19950058
10	0xbeb6e56e	-0.35721916
11	0xbed20661	-0.41020492
12	0x3ed25b3d	0.41085234
13	0x3fc352ef	1.5259684
14	0xbe3a49f6	-0.18192276
15	0xbffc2a47	-1.9700402

fc1.weight f4 [120, 400]
0	0xbe2fe082	-0.17175487
1	0xbdbae27e	-0.09125231
2	0xbd8f9565	-0.070109166
3	0xbcff8b5a	-0.031194378
4	0xbd0e5338	-0.034747332
5	0xbb5bc204	-0.003353239
6	0xbe2280b3	-0.15869407
7	0xbdabd07c	-0.083893746
8	0x3d997360	0.07492709
9	0x3ce9ecef	0.028555362
10	0xbd797c1a	-0.060909368
11	0x3da85089	0.08218486
12	0x3c3ddf88	0.0115889385
13	0xb91e7b8e	-0.00015114082
14	0xbd698934	-0.057015613
15	0xbd0450ca	-0.03230361
16	0x3de063b4	0.10956517
17	0xbc79f47a	-0.015256042
18	0x3e1190f7	0.14215456
19	0x3d356d7b	0.04429386
20	0xbdc3b6af	-0.095563285
21	0xbd034ed6	-0.032057606
22	0xbe77857e	-0.24172017
23	0xbcaaa010	-0.020828277
24	0xbca26f23	-0.019828385
25	0x3ea3cd05	0.31992355
26	0x3e6ba5fa	0.23012534
27	0x3eabea2f	0.33577105
28	0x3e8e5457	0.2779872
29	0x3dc688ab	0.09694036
30	0xbc9fd93e	-0.019512769
31	0x3e113fe4	0.14184529
32	0x3d908419	0.07056446
33	0x3e29859a	0.16554871
34	0x3d8f0951	0.06984199
35	0x3c8603f1	0.016359301
36	0x3d40db82	0.04708434
37	0x3d084aaf	0.03327435
38	0x3da87582	0.08225538
39	0xbd0d88e0	-0.034554362
40	0xbcd36d46	-0.025808942
41	0x3d97c289	0.074101515
42	0x3d5070e8	0.050888926
43	0xbddacb7a	-0.10683341
44	0x3d5b0837	0.05347463
45	0xbe66d25e	-0.22541186
46	0xbe1f29c9	-0.15543284
47	0xbdea3e68	-0.11437684
48	0x3cbda953	0.02315203
49	0xbd8b2ad4	-0.06795278
50	0xbc3df9e2	-0.011595221
51	0xbcc9827f	-0.024598358
52	0x3d792c99	0.060833547
53	0x3cee50b4	0.029091217
54	0xbe0944d7	-0.13405167
55	0x3da85045	0.08218435
56	0xbd85b201	-0.06528092
57	0x3de13377	0.10996144
58	0x3bf9fde1	0.0076291417
59	0x3cbacf14	0.02280382
60	0x3dfd453c	0.12366721
61	0xbcaf1851	-0.0213739
62	0x3d83c484	0.06433967
63	0x3d2a2013	0.041534495
64	0x3c5c57d7	0.013448677
65	0x3bfe4e84	0.0077608246
66	0x3db6ea94	0.08931461
67	0x3badf730	0.005309008
68	0xbdfb57ce	-0.12272607
69	0xbd2ed84e	-0.042686753
70	0x3a1bc4ff	0.00059421355
71	0xbcd4c0f3	-0.025970912
72	0x3c46d7e9	0.012136438
73	0x3e0a44bd	0.13502784
74	0x3dc76f3a	0.09738012
75	0xbd655963	-0.05599345
76	0xbb71af7b	-0.0036878276
77	0xbd863491	-0.06552995
78	0xbd8661b9	-0.06561608
79	0xbe4a4fe2	-0.19757035
80	0xbd9d1f7a	-0.07672019
81	0x3ce1f523	0.02758271
82	0x3e03d2dd	0.12873407
83	0xbd905c11	-0.0704881
84	0xbe1e3c42	-0.15452674
85	0x3cdf6e2a	0.02727421
86	0x3c917894	0.017757691
87	0x3bc5ea48	0.0060398914
88	0x3c122560	0.008920044
89	0xbd68bd29	-0.056821022
90	0xbca8f6ed	-0.020625556
91	0x3d5f1030	0.054458797
92	0x3d606314	0.05478199
93	0x3e1002f9	0.14063634
94	0x3d0497ed	0.03237145
95	0xbc6727d4	-0.014108617
96	0xbc86438f	-0.016389636
97	0xbd744cc8	-0.059643537
98	0xbd3bb433	-0.04582615
99	0x3e262243	0.16224007
100	0x3dcc7be1	0.099845655
101	0xbc990b59	-0.018682169
102	0x3d0e03df	0.03467166
103	0x3d48de99	0.04904041
104	0x3e1d9c35	0.1539162
105	0xbc3cf5c4	-0.0115332045
106	0x3d85beff	0.0653057
107	0x3d8a636a	0.06757243
108	0x3db209b8	0.0869326
109	0x3cb93e3b	0.022612682
110	0xbe6c3ce2	-0.230701
111	0x3cf8441b	0.030305913
112	0x3db2f26f	0.08737647
113	0x3e231c0d	0.1592867
114	0x3e3cba8b	0.18430535
115	0xbd77a2b5	-0.060457904
116	0xbb976ff2	-0.004621499
117	0x3d13f828	0.036125332
118	0xbd8020eb	-0.062562786
119	0xbc95f3e9	-0.018304782
120	0xbd679f5f	-0.056548472
121	0x3d94ee2e	0.07271992
122	0xbc9b314a	-0.018944401
123	0x3da0b905	0.0784779
124	0x3d18d48d	0.03731208
125	0xbdc0ab68	-0.09407693
126	0xbdde4f3d	-0.10854957
127	0xbde94dcb	-0.11391791
128	0xbdec236d	-0.115301944
129	0xbcad79fc	-0.02117633
130	0x3d222337	0.039584365
131	0x3dbdf016	0.092743084
132	0xbc9afe59	-0.01892011
133	0xbc93a29f	-0.01802188
134	0xbc8373ee	-0.01604649
135	0x3dcabea7	0.09899645
136	0x3d142d38	0.036175936
137	0xbcfba101	-0.030716421
138	0xbd4e07db	-0.05030046
139	0x3d884b2f	0.06654965
140	0xbc76147a	-0.01501953
141	0xbd170af9	-0.0368757
142	0xbd428591	-0.04749066
143	0x3e3f403c	0.18676847
144	0x3e827728	0.25481534
145	0x3ea7616f	0.32691523
146	0x3c9f1033	0.019416904
147	0xbe62c770	-0.22146392
148	0x3e037af2	0.12839869
149	0x3e95981e	0.2921762
150	0xbe33ef53	-0.17571764
151	0xbe2c8deb	-0.16851012
152	0xbe07f056	-0.13275275
153	0x3dd3dabc	0.10344455
154	0xbe5d2177	-0.21594797
155	0xbddffacc	-0.109365076
156	0xbd1a10b1	-0.037613574
157	0xbdc4f5b8	-0.0961718
158	0xbdca233f	-0.09870004
159	0xbd39b983	-0.045342933
160	0xbbe23036	-0.00690272
161	0xbdbcb31e	-0.092138514
162	0xbe084a4c	-0.13309592
163	0xbe057917	-0.13034473
164	0xbe652160	-0.22376013
165	0xbd87df39	-0.06634373
166	0xbd646cac	-0.0557677
167	0xbd864ec8	-0.06557995
168	0x3bf66131	0.0075189103
169	0xbdf9659c	-0.121775836
170	0xbcda2b7e	-0.026632067
171	0xbe69754a	-0.22798648
172	0x3d6dc594	0.058049753
173	0x3be37ca9	0.006942351
174	0xbe36604d	-0.17810173
175	0xbd3c1de2	-0.045926936
176	0xbddba482	-0.10724737
177	0xbe0185ea	-0.1264874
178	0xbe06ebb9	-0.13175859
179	0xbdada176	-0.08478062
180	0x3e0e28db	0.13882773
181	0xbc711f91	-0.014716999
182	0xbd50f660	-0.05101621
183	0x3cb4b1a0	0.022057354
184	0x3cf91c49	0.030408995
185	0x3e18d3dc	0.14924568
186	0x3ca4c0b0	0.020111412
187	0xbb78e952	-0.0037980867
188	0x3e937f3c	0.2880801
189	0x3e6227ed	0.22085543
190	0x3d9be277	0.07611554
191	0xbc98f95f	-0.018673597
192	0xbd2f3d66	-0.042783163
193	0xbd5df405	-0.054187793
194	0xbc700605	-0.014649873
195	0xbdf1b89f	-0.11802792
196	0x3cb4f672	0.02209017
197	0x3e0c143d	0.13679595
198	0x3d5f419b	0.054505926
199	0xbe08ad52	-0.13347366
200	0x3c6121d9	0.01374098
201	0x3d3a1136	0.04542657
202	0x3c442d62	0.011973711
203	0xbd723998	-0.059136957
204	0xbe53d900	-0.20688248
205	0xbdc49cbc	-0.09600207
206	0xbe1cb4ad	-0.15303297
207	0xbe39d46c	-0.18147439
208	0xbe330373	-0.17481785
209	0xbe5e5953	-0.21713762
210	0x3d36599d	0.044519056
211	0xbb984d96	-0.004647921
212	0xbd0ca5d4	-0.034337834
213	0xbd517d45	-0.051144857
214	0xbe43a7ac	-0.1910693
215	0xbdb8f034	-0.0903019
216	0x3d661f4c	0.05618219
217	0xbdd5947c	-0.10428712
218	0x3c2b3a5c	0.010450926
219	0xbc79b70e	-0.015241398
220	0xbe256e37	-0.16155325
221	0x3b542c36	0.0032374985
222	0xbd131223	-0.03590597
223	0x3ce8a74e	0.02840009
224	0x3d52a9e3	0.051431548
225	0xbe089138	-0.13336647
226	0xbe1bf190	-0.15228868
227	0xbe2f4d3b	-0.17119305
228	0xbe3da1c0	-0.18518734
229	0x3be64ad4	0.007027963
230	0xbdf33a5b	-0.11876365
231	0xbde6796a	-0.11253627
232	0xbd2f841b	-0.042850595
233	0xbdba4174	-0.090945154
234	0xbe54b16a	-0.20770803
235	0xbcb86058	-0.022506878
236	0x3de609d9	0.11232347
237	0xbcd223a7	-0.025651766
238	0x3d85766c	0.06516728
239	0x3db7846f	0.089608066
240	0x3dfb5a3d	0.12273071
241	0x3e2267e7	0.15859948
242	0x3b1f89e9	0.0024343675
243	0xbd8258b5	-0.06364576
244	0x3cc87468	0.02446957
245	0x3dd05f41	0.10174418
246	0xbdaa3e9b	-0.08312722
247	0x3cd54650	0.026034504
248	0xbdcbfd16	-0.09960382
249	0xbde77c72	-0.11303033
250	0xbe5bcd2e	-0.21464989
251	0xbe07416f	-0.13208555
252	0xbe5d6abc	-0.21622747
253	0xbe0a0519	-0.13478507
254	0xbe2e16e3	-0.17000918
255	0xbc5c268e	-0.0134369265

fc1.bias f4 [120]
0	0x3ea8b3cf	0.32949683
1	0x3d8e2c0d	0.06941996
2	0xbc27d19a	-0.010242844
3	0xbf03731e	-0.5134753
4	0xbca9a39f	-0.020707903
5	0xbb814dad	-0.0039460273
6	0x3e4acead	0.19805403
7	0xbd28c591	-0.04120404
8	0x3d5a5fc4	0.053313985
9	0xbe02f230	-0.127877
10	0x3dce71ef	0.10080325
11	0xbee657fb	-0.44989
12	0xbdaa1b34	-0.0830597
13	0x3e467257	0.19379555
14	0x3d6074ea	0.054798998
15	0xbe09f957	-0.13474022
16	0x3df22b2d	0.118246414
17	0xbd87c15e	-0.06628679
18	0xbe368524	-0.17824227
19	0xbd29e6a0	-0.041479707
20	0xbe40cd1a	-0.1882824
21	0x3eb29936	0.34882516
22	0x3e932aaa	0.28743488
23	0x3da24599	0.07923431
24	0xbe067aa2	-0.13132718
25	0x3de9f5ac	0.11423811
26	0xbcdd8c0b	-0.027044317
27	0xbda0ff52	-0.078611985
28	0xbe081dd1	-0.13292624
29	0x3e1ef3f0	0.15522742
30	0xbd2bb721	-0.041922692
31	0xbd42ca32	-0.04755611
32	0xbc879ff2	-0.01655576
33	0x3c9b2321	0.01893765
34	0xbe628a63	-0.22123103
35	0x3b44e29d	0.0030042299
36	0x3e812dc3	0.25230226
37	0x3e62e488	0.2215749
38	0xbe7d9055	-0.2476209
39	0x3d95e384	0.07318786
40	0xbd9bf9b9	-0.0761599
41	0xbecab20e	-0.3958897
42	0x3d118bbd	0.035533655
43	0xbdedb93b	-0.116075955
44	0xbe6d98b5	-0.23202784
45	0xbd25c496	-0.040470682
46	0xbe8323cb	-0.25613245
47	0xbd938d8d	-0.07204733
48	0x3c052d29	0.008128443
49	0xbe1c6894	-0.15274268
50	0x3d502be1	0.050823096
51	0xbe35bc06	-0.17747506
52	0xbd3ff46f	-0.04686397
53	0x3e1cbb13	0.15305738
54	0x3e2bc4a1	0.16774227
55	0xbe050faf	-0.12994264
56	0xbdc2468d	-0.09486113
57	0xbddfd846	-0.10929923
58	0x3d5dbf76	0.05413767
59	0xbe2009d2	-0.15628746
60	0xbde97548	-0.11399323
61	0x3d9c1825	0.07621793
62	0x3c97f7fa	0.018550862
63	0x3e8d7f53	0.27636203
64	0x3f32c1a7	0.6982674
65	0xbd92cc25	-0.07167844
66	0xbd00818f	-0.031373557
67	0xbd894950	-0.067034364
68	0xbbf02d31	-0.007329606
69	0xbd00d491	-0.03145272
70	0x3ebbe699	0.3669937
71	0xbe75a7e4	-0.23989826
72	0xbce47b13	-0.027890718
73	0x3d379823	0.044822823
74	0x3c670aab	0.014101665
75	0x3e2326b7	0.15932737
76	0x3e4ba9fe	0.19889066
77	0x3dac5c01	0.08415986
78	0x3c4cb154	0.01249345
79	0xbd841148	-0.06448609
80	0x3e247dac	0.16063565
81	0x3cc18e49	0.023627417
82	0xbcc64d03	-0.024206644
83	0x3f112582	0.5669786
84	0x3e584727	0.21120892
85	0x3dec85e6	0.115489766
86	0xbdc7877f	-0.09742641
87	0x3e14ed5b	0.14543669
88	0x3e972dfc	0.2952727
89	0xbe8a56e5	-0.2701942
90	0xbde20034	-0.11035195
91	0xbce16344	-0.027513154
92	0x3c1f6ba6	0.009730255
93	0x3ebf14eb	0.37320647
94	0x3e93ccfe	0.28867334
95	0xbe3511ec	-0.17682618
96	0x3db7a8bc	0.089677304
97	0xbe3ab561	-0.18233253
98	0xbce057bc	-0.027385585
99	0x3e59a169	0.2125298
100	0x3e13f848	0.1445018
101	0xbda6758b	-0.08127888
102	0xbe81605e	-0.25268835
103	0xbce860c0	-0.028366446
104	0x3c414e7d	0.011798498
105	0x3e386061	0.18005516
106	0xbdb1d42b	-0.08683046
107	0xbe34be05	-0.17650612
108	0xbde16b94	-0.11006847
109	0x3b1eabb3	0.0024211227
110	0x3dfb8d3d	0.122827984
111	0x3eb475b0	0.35246038
112	0xbd872e01	-0.066005714
113	0x3d5d3927	0.054009583
114	0xbe15645e	-0.14589068
115	0xbdb4fc9e	-0.088372454
116	0x3e7382de	0.2378039
117	0x3e419a09	0.18906416
118	0x3d6fb00c	0.0585175
119	0x3e004ba4	0.12528855

fc2.weight f4 [84, 120]
0	0xbde43290	-0.111424565
1	0xbdd4efaf	-0.103972785
2	0xbe124ade	-0.14286372
3	0x3e338858	0.1753248
4	0x3e56168b	0.20907037
5	0xbdc42c5f	-0.095787756
6	0x3ba648d6	0.0050746007
7	0x3e3a5ad5	0.18198712
8	0x3d98b8f8	0.07457155
9	0x3d314f5a	0.043288566
10	0xbd9480c4	-0.072511226
11	0xbcca9dbf	-0.024733422
12	0x3e292d2d	0.1652114
13	0xbc034fd2	-0.008014636
14	0xbe0fbfd4	-0.1403802
15	0xbdb688fd	-0.08912847
16	0xbcb92ea6	-0.022605252
17	0xbe1cabaa	-0.1529986
18	0xbe11a46b	-0.14222877
19	0x3d680a79	0.056650613
20	0xbead1f4a	-0.33812934
21	0xbcd8338d	-0.026391769
22	0xbbb8d3bd	-0.0056404755
23	0xbe0cba1f	-0.13742875
24	0x3dd3aedd	0.10336087
25	0xbda02417	-0.078193836
26	0xbd96aac6	-0.07356791
27	0xbe134f0a	-0.1438562
28	0x3ce0e8bd	0.027454728
29	0xbce3fb85	-0.027829895
30	0x3da720e9	0.08160574
31	0xbd6b963c	-0.05751632
32	0xbe464706	-0.19363031
33	0xbda9c50e	-0.08289538
34	0xbd83ef03	-0.06442072
35	0xbe1f1a4a	-0.15537372
36	0xbe90ed06	-0.28305835
37	0xbdf42a8a	-0.11922176
38	0x3d84bc4b	0.064812265
39	0x3d6e61e7	0.058198836
40	0xbe4579b9	-0.19284715
41	0xbd62c65a	-0.055364944
42	0xbddafcc6	-0.10692744
43	0x3d4febbe	0.05076193
44	0xbd2d924b	-0.042375844
45	0xbc70f5b3	-0.014707017
46	0xbd3ead47	-0.04655197
47	0xbe19ff00	-0.15038681
48	0x3c8ac8aa	0.016941387
49	0xbd0c5c1c	-0.03426753
50	0xbd4384fe	-0.047734253
51	0x3e64667a	0.22304717
52	0x3ce8780f	0.02837756
53	0x3cc43d19	0.023954915
54	0x3d00be80	0.031431675
55	0x3e6c869e	0.23098227
56	0xbcd9dab6	-0.026593547
57	0xbcdea150	-0.02717653
58	0xbe43d6b4	-0.19124871
59	0x3e5b3e23	0.21410422
60	0x3e439102	0.19098285
61	0xbeb1f04e	-0.3475365
62	0xbe37b5c4	-0.17940432
63	0xbdc332f5	-0.09531204
64	0xbdeb3c44	-0.11486104
65	0x3c144b53	0.009051162
66	0xbd96fa21	-0.07371927
67	0x3dcaa276	0.09894268
68	0xbdef8bb5	-0.11696569
69	0x3d089fdd	0.033355583
70	0xbd830203	-0.06396868
71	0xbe214257	-0.15747963
72	0xbe1d49d5	-0.15360196
73	0x3db3a835	0.08772317
74	0x3d88717c	0.066622704
75	0xbaa3e3c0	-0.0012503788
76	0xbc4aa7f7	-0.0123691475
77	0x376e26b7	1.41949195e-05
78	0x3dab3172	0.0835904
79	0xbec79c32	-0.38986355
80	0xbe3f1a20	-0.1866231
81	0xbc238547	-0.009980506
82	0xbc7a634d	-0.015282464
83	0xbd009f26	-0.031401776
84	0x3c0991c4	0.00839657
85	0xbdff0fe6	-0.12454204
86	0xbe2b78db	-0.16745321
87	0x3e5c79e8	0.21530879
88	0xbe6d389c	-0.23166126
89	0x3e46b0bf	0.19403361
90	0xbdc1f303	-0.09470179
91	0x3c8a15f6	0.016856175
92	0xbcbe00ac	-0.02319368
93	0xbd52d6e3	-0.051474463
94	0xbd8fddd7	-0.070247345
95	0x3dce1c6f	0.10064017
96	0xbd84a5ac	-0.06476912
97	0x3c70874a	0.014680693
98	0xbcabcb16	-0.020970862
99	0x3d70a720	0.058753133
100	0xbdbda1ac	-0.09259352
101	0x3ce32b2c	0.027730547
102	0x3e0aeede	0.13567683
103	0xbddeffa4	-0.10888603
104	0xbdbee8d1	-0.0932175
105	0xbe3059c1	-0.17221738
106	0xbd27e933	-0.04099388
107	0x3dc6815a	0.096926406
108	0x3e7ae504	0.24501425
109	0xbcc76ffe	-0.024345394
110	0x3c93b25d	0.018029386
111	0xbe5eecec	-0.21770066
112	0x3dd65f7a	0.104674295
113	0x3d9682a3	0.07349136
114	0x3e9ef620	0.31047153
115	0xbe1d9114	-0.15387374
116	0x3d5b59ef	0.053552564
117	0xbdf6a4fa	-0.120431855
118	0xbcd8fbbc	-0.026487224
119	0xbc9b5f13	-0.018966233
120	0x3bd081f6	0.006363149
121	0x3e8270d7	0.25476715
122	0xbe15663e	-0.14589784
123	0xbcccee3b	-0.02501594
124	0xbe4fbc74	-0.20286733
125	0xbe15e1ba	-0.14636889
126	0x3de2c2b3	0.11072292
127	0xbe244327	-0.16041242
128	0x3cd612f2	0.02613208
129	0x3d250388	0.04028657
130	0x3d7a21ff	0.061067577
131	0x3cfac3b6	0.0306109
132	0xbcb41710	-0.021983653
133	0xbc4d41f7	-0.012527934
134	0xbd093e51	-0.033506695
135	0x3d8756f5	0.066083826
136	0xbd7988de	-0.060921542
137	0xbe21647a	-0.15760985
138	0xbe221ebb	-0.15832035
139	0xbe047d3c	-0.12938398
140	0xbd9ab965	-0.075548925
141	0xbcd07dee	-0.025450673
142	0x3dcdb2b0	0.100438476
143	0x3e63f354	0.22260791
144	0x3db485d4	0.08814588
145	0x3e8c0cef	0.27353618
146	0x3d63e1e9	0.055635367
147	0xbe0354ce	-0.12825319
148	0x3d35fe16	0.04443177
149	0x3ea05e3f	0.31321904
150	0xbce18359	-0.027528452
151	0xbec610f1	-0.386848
152	0xbe791d13	-0.24327497
153	0x3dacec81	0.08443547
154	0xbd97e7c5	-0.074172534
155	0xbdf4de1d	-0.11956427
156	0x3db34965	0.08754233
157	0xbcead9d2	-0.028668318
158	0xbe59e541	-0.2127886
159	0x3ac9b022	0.0015387575
160	0xbe42ee26	-0.19036159
161	0xbd2fb902	-0.042901047
162	0x3ea28bb3	0.31747207
163	0xbe1df47b	-0.15425293
164	0x3c71fea1	0.014770181
165	0xbd78178a	-0.060569324
166	0xbe9de135	-0.30835882
167	0xbc80f88c	-0.015743516
168	0xbc3b214a	-0.011421511
169	0xbdd86e69	-0.10567934
170	0xbe6329e5	-0.2218395
171	0x3d51f726	0.05126109
172	0xbdcadd71	-0.09905518
173	0xbdfd47b3	-0.12367191
174	0x3dc65070	0.09683311
175	0xbbdaf8eb	-0.0066825054
176	0x3d1d8d73	0.038464975
177	0x3d4093ba	0.047015883
178	0xbafc9582	-0.0019270631
179	0xbc9884e2	-0.018618051
180	0x3da8d64e	0.082440004
181	0xbe8e8035	-0.2783219
182	0x3d9063f0	0.070503116
183	0x3e5fec08	0.21867383
184	0x3e0d7463	0.1381393
185	0xbe3fcb7a	-0.18729964
186	0xbe34e7be	-0.17666528
187	0xbe343523	-0.17598395
188	0x3d7bb566	0.061452292
189	0xbe48e735	-0.19619448
190	0xbdef2a5f	-0.116780035
191	0xbdec60ce	-0.115419015
192	0xbe08cfbd	-0.13360496
193	0x3c536693	0.012902874
194	0xbd66a464	-0.05630912
195	0xbb6af5c3	-0.0035852052
196	0x3dc44534	0.09583512
197	0x3deade0a	0.11468132
198	0x3c9a2faf	0.018821565
199	0xbdbb6837	-0.09150737
200	0x3e433142	0.19061759
201	0xbddd6677	-0.10810559
202	0xbddfac09	-0.10921485
203	0x3d8289f8	0.06373972
204	0xbe077e6b	-0.13231818
205	0x3e1d54e6	0.15364417
206	0x3e660293	0.2246192
207	0x3db03118	0.08603114
208	0xbda61d33	-0.08111038
209	0xbdd0ce87	-0.10195642
210	0xbe34ea86	-0.17667589
211	0x3ceb5f99	0.028732108
212	0x3e002bbd	0.12516685
213	0x3e2cfc28	0.16893065
214	0x3de80958	0.11329907
215	0x3ea28bd7	0.31747314
216	0xbd7e042c	-0.062015697
217	0x3e033480	0.12812996
218	0xbdb3ec01	-0.087852485
219	0x3d6e241c	0.058139905
220	0xbe3c86d2	-0.18410805
221	0xbde7cd04	-0.113184005
222	0xbd04cae8	-0.03242007
223	0xbdd41935	-0.1035637
224	0x3deed38d	0.11661444
225	0xbde8f1e8	-0.11374265
226	0xbd1f6189	-0.038911376
227	0xbce47d66	-0.027891826
228	0x3d34eaeb	0.044169348
229	0xbd059f05	-0.032622356
230	0xbe3a4bbd	-0.18192954
231	0x3d47eda5	0.04881062
232	0x3d9e26e4	0.077222615
233	0x3d4c0bfe	0.049816124
234	0xbde0481f	-0.10951256
235	0x3d572387	0.052524116
236	0xbe2d4f2f	-0.16924737
237	0xbe323286	-0.17402086
238	0x3d56c575	0.052434403
239	0xbda9e748	-0.082960665
240	0xbd5cc70e	-0.05390077
241	0xbd71a7f4	-0.058998063
242	0x3d03dadb	0.03219114
243	0xbcbe6e08	-0.023245826
244	0x3e3ecfd8	0.18633974
245	0xbd995cbb	-0.0748839
246	0xbe6b650b	-0.22987764
247	0xbe7755be	-0.24153802
248	0xbe29b951	-0.16574599
249	0x3e72d109	0.23712553
250	0xbdcc6cd4	-0.09981695
251	0xbe91f6e8	-0.28508687
252	0xbd3df2cc	-0.046374127
253	0xbe876b96	-0.2644927
254	0xbe58db7c	-0.21177477
255	0xbd04e2f5	-0.032443006

fc2.bias f4 [84]
0	0xbd5429fa	-0.051797844
1	0x3e3d3a79	0.18479337
2	0x3e9715a5	0.295087
3	0x3cd6e8d5	0.02623407
4	0x3ea34acc	0.31893003
5	0x3f009dc0	0.5024071
6	0xbda871ba	-0.082248166
7	0xbe0b4026	-0.1359869
8	0x3eceec93	0.40414867
9	0xbe678905	-0.22610863
10	0x3d500e40	0.05079484
11	0x3f3283af	0.69732183
12	0x3e256fdb	0.1615595
13	0xbba51bd3	-0.0050387173
14	0x3f7d92c3	0.99052066
15	0x3f340cb3	0.7033188
16	0xbcb25bd8	-0.02177231
17	0x3f392a62	0.72330296
18	0xbdb0d2ec	-0.0863398
19	0x3e93d628	0.28874326
20	0x3c349828	0.011022605
21	0x3e3cec92	0.1844962
22	0x3f3e66ff	0.7437591
23	0x3e03f0a6	0.12884769
24	0xbde5ebe4	-0.11226633
25	0xbd44ce93	-0.048048567
26	0x3e02ce5d	0.12774034
27	0x3f44e721	0.76915175
28	0x3d8fc85e	0.07020639
29	0x3d0e21fe	0.034700386
30	0x3e6f19f2	0.23349741
31	0x3d521d81	0.05129767
32	0xbe4f93f7	-0.20271288
33	0xbe3ed92b	-0.1863753
34	0x3f26ac1e	0.6510638
35	0xbd2c9f3f	-0.042144056
36	0x3c85b18e	0.016320016
37	0x3cbc06b9	0.022952424
38	0xbe72cc13	-0.2371066
39	0xbde4b0f5	-0.111665644
40	0x3e0079dd	0.12546487
41	0xbd2eb154	-0.042649582
42	0xbdf41e6f	-0.11919867
43	0x3daf6950	0.08565009
44	0x3ef36df1	0.47544816
45	0x3e3c6c53	0.18400697
46	0x3f60251e	0.87556636
47	0x3e115d4d	0.14195748
48	0x3ddeae39	0.10873074
49	0x3ee3b8ca	0.4447692
50	0x3e30dabf	0.17270945
51	0xbbd3d99c	-0.00646515
52	0x3e922d6e	0.28550285
53	0x3ecc5f9d	0.39916697
54	0x3f38c3b5	0.72173625
55	0x3eb1835b	0.3467053
56	0x3e49ccd3	0.1970704
57	0x3e51e0b6	0.20495877
58	0x3e43d1b1	0.1912296
59	0x3d3752c0	0.04475665
60	0xbde19c24	-0.110161096
61	0x3e9d9776	0.30779618
62	0x3dd0f88f	0.10203659
63	0x3dc0eb79	0.09419913
64	0x3e9e1b64	0.30880272
65	0x3eea5ff8	0.45776343
66	0x3ddee57d	0.10883615
67	0xbc7bfafb	-0.015379663
68	0x3ed8100a	0.42199737
69	0x3db5edb5	0.0888323
70	0x3ef0775d	0.46966067
71	0xbd2e01c2	-0.042482145
72	0x3e8c5233	0.27406463
73	0x3e3b2890	0.18277192
74	0x3e1f9f89	0.15588202
75	0x3c25c644	0.010118071
76	0x3e3eacc6	0.18620595
77	0x3d89b917	0.06724756
78	0x3d8b1421	0.06790949
79	0x3f8f5ae3	1.1199611
80	0xbd6b3b4a	-0.05742959
81	0xbe032fa7	-0.12811147
82	0x3ebc0420	0.36721897
83	0xbd9f2ceb	-0.07772239

fc3.weight f4 [10, 84]
0	0x3db61c53	0.08892121
1	0x3e02e96a	0.12784353
2	0x3e119038	0.14215171
3	0xbd9b3e25	-0.075802125
4	0x3d98c1da	0.07458849
5	0xbda5150a	-0.080606535
6	0x3d257780	0.040397167
7	0x3e262282	0.16224101
8	0x3e304936	0.17215428
9	0x3e267fb4	0.16259652
10	0xbdc751ea	-0.09732421
11	0x3e336625	0.17519434
12	0x3e3bb038	0.18328941
13	0x3db78897	0.08961599
14	0xbe3b5eb1	-0.1829784
15	0xbebc10c5	-0.36731544
16	0x3de549d4	0.11195722
17	0x3bb308c5	0.005463692
18	0x3e1d555f	0.15364598
19	0xbd785ddc	-0.060636386
20	0x3dd14a0e	0.10219203
21	0x3dd7b455	0.105324425
22	0xbea063fb	-0.3132628
23	0x3de42c92	0.111413136
24	0x3e072540	0.13197803
25	0xbe44d005	-0.19219978
26	0x3e9320b5	0.2873589
27	0xbce0755b	-0.02739971
28	0xbc821f40	-0.015884042
29	0x3df95866	0.12175064
30	0xbe5ca0e8	-0.21545756
31	0x3d1840c2	0.037171133
32	0x3e58d1d8	0.21173799
33	0x3da356bb	0.07975527
34	0xbd1ad3c3	-0.037799608
35	0xbde1c744	-0.11024335
36	0x3c8c7b2a	0.017148573
37	0x3e74872f	0.23879693
38	0x3e574ef4	0.21026212
39	0xbdf85030	-0.121246696
40	0x3d82442e	0.063606605
41	0x3d47b1e2	0.048753627
42	0xbca0f85e	-0.01964968
43	0x3db59a80	0.08867359
44	0xbc34d58d	-0.011037243
45	0x3cd94fb1	0.026527258
46	0xbe93ca3b	-0.28865227
47	0xbe063ef1	-0.13109948
48	0xbd0ba85f	-0.034096118
49	0x3e2b1f11	0.1671107
50	0x3e65c603	0.22438817
51	0xbc501f1b	-0.012702729
52	0xbdeaa930	-0.11458051
53	0x3e32756f	0.1742761
54	0xbe32d5e5	-0.17464407
55	0x3e4a37e1	0.19747879
56	0x3e902abf	0.28157613
57	0xbe6428a7	-0.22281133
58	0xbe1409df	-0.1445689
59	0x3e2f194f	0.17099498
60	0x3e7e9a5d	0.24863572
61	0x3e608085	0.21924026
62	0xbcae859c	-0.021303944
63	0xbd304b1c	-0.04304038
64	0xbcaf303a	-0.0213853
65	0x3e290085	0.16504104
66	0x3deacc30	0.11464727
67	0xbe3cab0f	-0.18424629
68	0xbe7d8502	-0.2475777
69	0xbd822736	-0.06355135
70	0x3cc3c883	0.023899322
71	0x3e40685b	0.18789808
72	0x3de40153	0.11133065
73	0xbd92939b	-0.0715706
74	0x3c0fab81	0.008768917
75	0x3e250dc0	0.16118526
76	0xbe3c1d87	-0.18370639
77	0x3e0a3969	0.13498463
78	0x3c692fb2	0.014232563
79	0xbe33567f	-0.17513464
80	0x3e0a8059	0.13525523
81	0x3c912e90	0.017722398
82	0xbe035df5	-0.1282881
83	0x3e4cfb3c	0.20017713
84	0xbdd6845b	-0.104744636
85	0xbb8af971	-0.0042411615
86	0x3e3be394	0.18348533
87	0xbe1922cf	-0.14954685
88	0xbe6e73bd	-0.23286338
89	0xbe32187a	-0.1739215
90	0xbc0a898b	-0.008455644
91	0xbd8fd2d8	-0.07022637
92	0x3e49eb75	0.19718726
93	0x3e0d0b17	0.13773762
94	0xbe29ce99	-0.16582717
95	0xbe08b457	-0.13350044
96	0x3e75ca59	0.24002971
97	0xbe268e81	-0.16265298
98	0xbe8ebff2	-0.27880818
99	0xbe63663e	-0.22206971
100	0x3e4368c7	0.19082938
101	0xbe8a50be	-0.27014726
102	0x3e79375e	0.24337527
103	0x3d6cdc0d	0.057827044
104	0xbe8bd9b3	-0.2731453
105	0x3d3ea576	0.046544515
106	0xbda1d1eb	-0.07901367
107	0xbe24c3b5	-0.16090281
108	0x3e218e17	0.15776859
109	0x3e4655bb	0.19368641
110	0x3db54b95	0.08852307
111	0xbd145541	-0.036214117
112	0x3e586a17	0.2113422
113	0x3e253587	0.161337
114	0xbe423d47	-0.18968688
115	0xbe52f218	-0.20600164
116	0x3dedda3e	0.11613892
117	0xbe2ec9b8	-0.17069137
118	0xbecc34c3	-0.39884004
119	0x3e75a722	0.23989537
120	0x3d961203	0.07327654
121	0xbd224275	-0.03961416
122	0xbdad3a79	-0.084584184
123	0xbdb1ea54	-0.08687273
124	0x3e23c563	0.15993266
125	0x3e8f27d3	0.2796007
126	0x3d79b338	0.060961932
127	0x3ddf91bf	0.10916471
128	0xbe01a758	-0.12661493
129	0xbd0bd977	-0.034142938
130	0x3d906973	0.07051363
131	0x3e702fbc	0.23455709
132	0xbe0b4cf5	-0.13603576
133	0xbe96bb0d	-0.29439583
134	0x3e05eb4e	0.13078043
135	0x3e8c3d57	0.2739055
136	0xbb990015	-0.004669199
137	0xbd1ba02f	-0.03799456
138	0xbae8b472	-0.0017753972
139	0xbd624dc4	-0.055249944
140	0xbc973304	-0.018456943
141	0x3dec36e9	0.11533911
142	0xbd9de90a	-0.07710464
143	0x3cafb693	0.021449363
144	0xbdadd01c	-0.08486959
145	0x3e955ec6	0.2917387
146	0x3d868c28	0.065697014
147	0x3d918d43	0.07107022
148	0x3e9c9403	0.30581674
149	0xbe185c45	-0.14878948
150	0x3e8c234d	0.27370682
151	0xbce36242	-0.027756814
152	0x3e092dde	0.13396403
153	0xbe5b93e9	-0.21443142
154	0xbe2d0575	-0.16896613
155	0x3c64cf4b	0.013965438
156	0x3e419d0f	0.1890757
157	0x3bb984fc	0.005661605
158	0x3e04f439	0.12983789
159	0xbea31e72	-0.31859165
160	0x3e118da3	0.14214186
161	0x3e4dde88	0.2010442
162	0xbdce5ad3	-0.10075917
163	0xbf00fede	-0.50388896
164	0x3d2591f7	0.040422406
165	0x3daa269c	0.083081454
166	0xbdfebeef	-0.124387614
167	0x3e40f71f	0.18844269
168	0x3d4e1be4	0.050319567
169	0xbdd7c6ef	-0.105359904
170	0xbdc605d9	-0.09669084
171	0x3e8d0ed7	0.27550384
172	0x3c55a079	0.013038748
173	0x3e53333b	0.20625012
174	0xbe23528b	-0.15949456
175	0x3e30307d	0.17205997
176	0xb9dffe54	-0.00042723364
177	0x3dba48f9	0.0909595
178	0x3e247488	0.16060078
179	0xbd1ea4b5	-0.038731296
180	0x3dab9697	0.08378332
181	0x3e9e7364	0.3094741
182	0x3e19a94b	0.15005986
183	0x3e6ac535	0.22926791
184	0x3e08b041	0.13348486
185	0x3d725048	0.059158593
186	0xbcaa81bd	-0.020813817
187	0xbd2636b7	-0.040579524
188	0x3e2547b5	0.16140635
189	0x3d5596d3	0.05214579
190	0x3e6188c1	0.22024824
191	0xbe8bbcf0	-0.27292585
192	0xbd11e5f5	-0.035619695
193	0xbe6da97a	-0.23209181
194	0xbe149b5d	-0.14512391
195	0x3cc20921	0.023685994
196	0x3b8dd38b	0.0043281964
197	0x3dd2c44f	0.10291349
198	0x3dc5458f	0.09632408
199	0xbe46dfaa	-0.19421259
200	0x3e1bdc19	0.1522068
201	0x3e3aa500	0.18227005
202	0x3e93d474	0.28873026
203	0x3c8e73c0	0.017389178
204	0xbde784e7	-0.11304646
205	0xbd40d16e	-0.047074728
206	0x3d0d2a99	0.034464452
207	0x3e27bf82	0.16381648
208	0x3e1b44c2	0.15162948
209	0xbd19e0ae	-0.037567787
210	0x3d7b42cd	0.061343003
211	0xbe0fad1d	-0.14030881
212	0xbcec78a8	-0.028866127
213	0x3e3abdf0	0.18236518
214	0x3e25cc30	0.16191173
215	0xbe2a91eb	-0.16657226
216	0x3e2e616f	0.17029355
217	0x3df0c43b	0.11756178
218	0xbe0a8ba0	-0.13529825
219	0x3d7a7a2a	0.06115166
220	0xbe188c8f	-0.14897369
221	0xbde7af0d	-0.11312685
222	0xbb895f6c	-0.0041922834
223	0x3e4bea73	0.19913654
224	0x3e0bd541	0.13655569
225	0xbc4d07e5	-0.012514089
226	0xbe266b6f	-0.1625192
227	0x3d07de11	0.033170763
228	0xbbc9b14a	-0.0061551677
229	0xbdc29c38	-0.095024526
230	0xbe043997	-0.12912594
231	0x3e1fe943	0.15616326
232	0xbe16862e	-0.14699623
233	0xbe6299bc	-0.22128958
234	0xbe6ea69e	-0.23305747
235	0x3e2ea8e3	0.17056613
236	0xbd9c4258	-0.076298416
237	0x3e315e8a	0.1732122
238	0x3e8cbd65	0.27488247
239	0x3ce59428	0.028024748
240	0x3e066269	0.13123478
241	0x3e3beb3b	0.18351452
242	0xbe479fa2	-0.19494489
243	0x3e5fa46e	0.21840069
244	0x3ce5599e	0.027996834
245	0xbdff69dd	-0.12471364
246	0x3d2071c2	0.039170988
247	0x3e6114e6	0.21980628
248	0x3e151a91	0.14560916
249	0x3d6ba02a	0.05752579
250	0xbc841bb4	-0.016126491
251	0x3e0cef6b	0.13763206
252	0xbdacb740	-0.0843339
253	0xbe0cbfe5	-0.13745077
254	0x3defbbed	0.11705766
255	0xbda1c983	-0.078997634

fc3.bias f4 [10]
0	0xbef024f8	-0.46903205
1	0xbf51e8cb	-0.8199584
2	0xbf105917	-0.5638594
3	0x3f2c444c	0.6729171
4	0x3f753673	0.9578621
5	0x3e3fd98f	0.18735336
6	0x3e9e5391	0.3092313
7	0xbe954863	-0.2915679
8	0x3e02fdbe	0.12792107
9	0xbe9aaea4	-0.30211365
